moveModel.pt (torch, 965026 bytes, 3 tensors)

embeddings.weight f4 [937, 128]
-1.5255959 -0.7502318 -0.6539809 -1.6094848 -0.10016718 -0.6091889 -0.97977227 -1.6090963
-0.7121446 0.303722 -0.7773143 -0.25145525 -0.22227049 1.6871134 0.22842517 0.4676355
-0.6969724 -1.1607615 0.6995424 0.19908163 0.8656924 0.24440393 -0.66291136 0.80730826
1.1016806 -0.17593604 -2.2455578 -1.446458 0.061155282 -0.6177445 -0.79806983 -0.13162321
1.8793458 -0.07213178 0.1577706 -0.7734549 0.1990565 0.045702778 0.15295692 -0.4756788
-0.11101983 0.29273525 -0.15784515 -0.02878714 2.357111 -1.0373387 1.5747981 -0.6298472
-0.9273917 0.5451415 0.06628026 -0.43704012 0.7626006 0.44151092 1.1651385 2.0153918
0.13741246 0.9386447 -0.18600109 -0.6446393 1.5392458 -0.8695876 -3.3311536 -0.74787223
-0.025502462 -1.0233306 -0.59618515 -1.0055307 -0.2106063 -0.0075475276 1.6734272 0.010342831
-0.70395666 -0.1852658 -0.9962351 -0.83125526 -0.46102202 -0.56008244 0.39557618 -0.9822771
-0.5064866 0.099775404 -0.6539734 0.7316937 -1.4343859 -0.50081307 0.17163314 -0.15999313
0.2546335 -0.5019573 -1.0412 0.7322672 -1.0483401 -0.4708772 0.29113635 1.9907043
0.6614453 1.1899205 0.8165339 -0.9135236 1.3851457 -0.81384623 -0.92757654 1.1119633
1.3352057 0.6042736 -0.10344208 -0.15121692 -2.102083 -0.62002194 -1.478231 -1.1334175
0.8737963 -0.5602594 1.2857845 0.81682384 0.2053041 0.30510718 0.535687 -0.431185
2.5581384 -0.23336388 -0.01347213 1.8606348 -1.9804063 1.7985829 0.10181159 0.340006
0.71236455 -1.7765073 0.35386458 1.1996132 -0.3029974 -1.7618417 0.6348446 -0.8043591
-1.6111118 -1.8716129 0.5430836 0.6606786 2.2952116 0.67490596 1.7133216 -1.7942734
-1.3632672 -0.9832196 1.5112667 0.64187074 0.4729638 -0.4285901 0.55137074 -1.5473709
0.5181121 0.10653535 0.26924077 1.324768 1.7460191 1.854969 -0.7063691 2.5570862
0.4175343 -0.2127186 -0.839958 -0.42001787 -0.6240363 -0.9772961 0.8748428 0.9872814
0.30957633 1.52069 1.2052339 -1.815591 -0.40346155 -0.9591451 -0.005207704 -0.07886314
0.8436543 1.1657013 0.5269322 1.6192533 -0.96397626 0.14152038 -0.16366096 -0.35822257
1.7222793 -0.3035756 0.2388742 1.3440012 0.10322569 1.1003542 -0.3416802 0.9473389
-0.56851596 0.8375962 1.7836607 -0.19542466 0.5149161 -1.8474776 -2.9167426 -0.5673299
-0.5412802 0.895174 -0.882507 0.53181124 -1.5457772 -0.17329982 0.72824633 0.05706102
0.9055172 1.0462948 -0.520597 1.3547838 0.23519313 1.9142433 1.8364111 1.3245324
-0.96900916 1.2516364 1.2103242 -0.5279206 0.21856615 -0.57430726 1.4571251 1.7709557
1.6499138 -0.43200457 -0.2710269 -1.4391626 1.2470404 1.2738512 0.39094925 0.3872105
-0.07982872 0.3417243 0.9488273 -1.3839359 1.7240863 -2.3647652 -0.9294909 0.2936253
0.21513203 0.9384637 1.4657077 -0.5564744 -0.7448408 -0.20215721 -0.2296679 0.0013313366
0.3752759 -0.5810679 -0.57230884 1.0097175 -0.10564939 -1.179696 -0.090779595 0.56311435
00000000: ba46 c3bf 310f 40bf 4b6b 27bf 9903 cebf
00000010: 7324 cdbd cef3 1bbf 5bd2 7abf def6 cdbf
00000020: 1c4f 36bf 7381 9b3e 12fe 46bf bebe 80be
00000030: e09a 63be 55f3 d73f 4ae8 693e ec6d ef3e
00000040: c96c 32bf d593 94bf 3615 333f 0edc 4b3e
00000050: 049e 5d3f 0645 7a3e 8fb4 29bf c1ab 4e3f
00000060: df03 8d3f 9428 34be 38b7 0fc0 8925 b9bf
00000070: f67d 7a3d 8124 1ebf 4e4e 4cbf 3cc8 06be
00000080: 678e f03f d4b9 93bd 9e8e 213e 2401 46bf
00000090: 78d5 4b3e d632 3b3d bda0 1c3e 2c8c f3be
000000a0: 5d5e e3bd 65e1 953e 29a2 21be 02d3 ebbc
000000b0: e8da 1640 84c7 84bf fc92 c93f ab3d 21bf
000000c0: 8b69 6dbf 658e 0b3f f2bd 873d b9c3 dfbe
000000d0: cb39 433f b80d e23e 4223 953f 2efc 0040
000000e0: dab5 0c3e 054b 703f 1277 3ebe 1507 25bf
000000f0: 0206 c53f 4b9d 5ebf 9f31 55c0 8e74 3fbf
00000100: 8aea d0bc 7ffc 82bf 979f 18bf 3bb5 80bf
00000110: 2ea9 57be 4051 f7bb dd32 d63f fa74 293c
00000120: 8136 34bf 51b6 3dbe 4309 7fbf 25cd 54bf
00000130: 140b ecbe 9061 0fbf f688 ca3e 8376 7bbf
00000140: 1ba9 01bf 0c57 cc3d cd6a 27bf 4750 3b3f
00000150: f599 b7bf 4935 00bf 99c0 2f3e 3dd5 23be
00000160: 525f 823e 4680 00bf 0b46 85bf dd75 3b3f
00000170: 0230 86bf d116 f1be d30f 953e 66cf fe3f
00000180: 7b54 293f 514f 983f 5e08 513f afdc 69bf
00000190: 744c b13f 3a58 50bf a875 6dbf d054 8e3f
000001a0: 05e8 aa3f adb1 1a3f 71d9 d3bd 9cd8 1abe
000001b0: 8788 06c0 c2b9 1ebf ac36 bdbf d313 91bf
000001c0: 1db1 5f3f 296d 0fbf 9694 a43f 5e1b 513f
000001d0: 3d3b 523e 0237 9c3e c922 093f 48c4 dcbe
000001e0: 8ab8 2340 f1f6 6ebe 35ba 5cbc 4829 ee3f
000001f0: f47d fdbf f737 e63f 9882 d03d 4415 ae3e
00000200: 865d 363f 9764 e3bf bd2d b53e ed8c 993f
00000210: 7a22 9bbe 0784 e1bf 2d85 223f 7aea 4dbf
00000220: e938 cebf 0391 efbf 8707 0b3f 3c22 293f
00000230: bfe4 1240 a3c6 2c3f 1f4e db3f c0aa e5bf
00000240: 8a7f aebf 48b4 7bbf 3071 c13f a451 243f
00000250: 5028 f23e 2970 dbbe a226 0d3f 4010 c6bf
00000260: ffa2 043f 352f da3d edd9 893e ff91 a93f
00000270: 8e7d df3f a06f ed3f 9bd4 34bf 4da7 2340
00000280: 0ec7 d53e e8d2 59be 7d07 57bf 950c d7be
00000290: d8c0 1fbf 1430 7abf b3f5 5f3f 79be 7c3f
000002a0: ca80 9e3e f8a5 c23f 1b45 9a3f 4965 e8bf
000002b0: 8392 cebe 898a 75bf 63a5 aabb ff82 a1bd
000002c0: baf9 573f b335 953f 07e5 063f b143 cf3f
000002d0: 26c7 76bf b8ea 103e bd96 27be f368 b7be
000002e0: a673 dc3f 436e 9bbe 709b 743e 3b08 ac3f
000002f0: fe67 d33d 68d8 8c3f b5f0 aebe cd84 723f
00000300: 438a 11bf b46c 563f fe4e e43f 671d 48be
00000310: 8bd1 033f 257a ecbf e9ab 3ac0 883c 11bf
00000320: 5791 0abf 202a 653f fbeb 61bf c824 083f
00000330: 07dc c5bf 8275 31be 5a6e 3a3f d1b8 693d
00000340: facf 673f fdec 853f d845 05bf 8e69 ad3f
00000350: 78d6 703e ed05 f53f 850f eb3f 478a a93f
00000360: fc10 78bf 9f35 a03f e7eb 9a3f ce25 07bf
00000370: cecf 5f3e cd05 13bf 1383 ba3f adae e23f
00000380: 6030 d33f b42f ddbe 0ac4 8abe 7b36 b8bf
00000390: 059f 9f3f 8e0d a33f 802a c83e 7440 c63e
000003a0: 3d7d a3bd 7df6 ae3e 59e6 723f d024 b1bf
000003b0: dcae dc3f 5058 17c0 1ef3 6dbf 0e56 963e
000003c0: 924b 5c3e 283f 703f 4f9c bb3f 1b75 0ebf
000003d0: e3ad 3ebf 4d02 4fbe 102e 6bbe 3e80 ae3a
000003e0: 2a24 c03e dec0 14bf d582 12bf 6c3e 813f
000003f0: b55e d8bd 4700 97bf a7ea b9bd 4328 103f

linear.weight f4 [937, 128]
-0.6543182 0.058629826 -0.14089678 -0.22050276 -0.03392932 -0.13126399 -0.25643772 -0.41618973
-0.16166091 0.4298708 -0.725956 -0.53776985 -0.9341555 0.5058204 -0.74943316 0.31899136
0.49148297 0.124500126 0.4147245 0.7161767 0.23731758 0.63828945 -1.0268967 0.37239534
-0.28994456 -0.31369784 0.16026746 -0.27893606 0.3772273 0.004831181 0.26731858 -0.20604497
0.11896954 -0.22105017 -0.8949027 -0.28825665 0.07252126 -0.835359 -0.022238173 -0.33849522
-0.43096143 -0.52175754 0.4795197 0.21375577 0.16517568 0.07147668 0.6152308 -0.9037818
0.0945965 0.1832243 -1.0564272 -0.32748577 -0.054124657 -0.13483004 1.2857523 0.2023884
1.901867 -1.0176656 0.66933745 -1.4543567 0.44406587 0.22984135 0.09945872 -0.5727912
-0.5934505 -0.14933074 -0.6243566 0.20231344 0.059955683 0.6322819 -0.30766174 -0.20216839
-0.3464109 -0.24945402 -0.23985691 0.296547 0.3911493 -0.311715 0.21528476 -0.43413082
-0.35465822 0.3466698 0.30545443 0.21240814 -0.69232935 -0.14959376 0.042623412 0.42980307
0.37258232 -0.14450222 0.68838745 -0.0022396357 0.13759188 0.54420346 0.14123864 0.4918264
0.34162915 -0.03058343 -0.1728142 -0.095721096 0.7452636 0.40211406 -0.04749894 0.03662272
0.27279845 -0.73458 -0.5935369 -0.016311727 -0.79283166 -0.69761974 0.625214 -1.08134
0.6915145 -0.711436 -0.35098335 0.00019086455 0.9856409 -0.62706536 -1.5217605 0.97875655
-0.32483023 0.039908882 0.18198211 0.23909554 -0.29308793 -0.27603155 -0.067851305 0.858018
-0.66152436 0.059934746 -0.12799133 -0.27549517 -0.045158498 -0.14806938 -0.25400713 -0.39686203
-0.16911963 0.45573997 -0.71541506 -0.5503139 -0.9635356 0.5189911 -0.79259133 0.33707437
0.5155604 0.1210141 0.39156204 0.7132187 0.2402221 0.6424892 -1.0275973 0.392026
-0.3251455 -0.3035563 0.09740277 -0.30986932 0.40621746 0.0477197 0.24980634 -0.22109401
0.09989233 -0.20076439 -0.8752823 -0.2808671 0.066820085 -0.8324725 -0.023532 -0.37768015
-0.3998786 -0.49294057 0.469396 0.2159529 0.1656735 0.07511253 0.6396398 -0.8466599
0.083184764 0.2054028 -1.0947801 -0.29834315 -0.0922999 -0.1339709 1.3154695 0.21833181
1.9074492 -1.003208 0.66848135 -1.4642444 0.43895817 0.23541781 0.052787017 -0.61128217
-0.5742203 -0.14584696 -0.648708 0.2248333 0.05301615 0.64167184 -0.31293085 -0.16307363
-0.34897897 -0.2325504 -0.22073628 0.2822786 0.3838984 -0.30983612 0.2152122 -0.46472463
-0.34683457 0.32383272 0.34374842 0.17061876 -0.66518396 -0.13062459 0.03894538 0.425772
0.3813201 -0.14007337 0.7177001 0.006825276 0.16251871 0.5193895 0.09890289 0.46681455
0.37436923 -0.06407209 -0.16297552 -0.07791283 0.739761 0.39804786 -0.08248038 0.029020563
0.27901334 -0.76074487 -0.5859828 -0.04469111 -0.8052958 -0.6592793 0.6384416 -1.0972124
0.71394503 -0.71781325 -0.33734372 0.0014845488 0.99718463 -0.64700186 -1.5434562 0.9489954
-0.3002296 0.075287655 0.14765339 0.24261898 -0.27753797 -0.24793482 -0.053474493 0.92957914
00000000: 6681 27bf d425 703d 3f47 10be 7acb 61be
00000010: 78f9 0abd 116a 06be ce4b 83be d216 d5be
00000020: 708a 25be 0718 dc3e 41d8 39bf 49ab 09bf
00000030: d124 6fbf 727d 013f dada 3fbf d652 a33e
00000040: a8a3 fb3e ecf9 fe3d c556 d43e 5b57 373f
00000050: 6103 733e f066 233f 5a71 83bf 9aaa be3e
00000060: 9d73 94be 019d a0be 271d 243e b5d0 8ebe
00000070: f023 c13e e24e 9e3b fbdd 883e 74fd 52be
00000080: 4da6 f33d fa5a 62be 5818 65bf 6096 93be
00000090: 0786 943d 16da 55bf d42c b6bc 3f4f adbe
000000a0: faa6 dcbe e791 05bf 9b83 f53e cbe2 5a3e
000000b0: d023 293e 5e62 923d c47f 1d3f 3e5e 67bf
000000c0: cfbb c13d 279f 3b3e 0239 87bf 37ac a7be
000000d0: d1b1 5dbd e310 0abe 8893 a43f e83e 4f3e
000000e0: 6170 f33f de42 82bf b359 2b3f 5c28 babf
000000f0: 9a5c e33e 885b 6b3e 03b1 cb3d 72a2 12bf
00000100: 5fec 17bf 28ea 18be d6d5 1fbf 412b 4f3e
00000110: 1794 753d 3add 213f d785 9dbe 3b05 4fbe
00000120: c55c b1be e070 7fbe 0d9d 75be 02d5 973e
00000130: b944 c83e 1c99 9fbe 9c73 5c3e 6546 debe
00000140: c395 b5be b47e b13e 8664 9c3e 8581 593e
00000150: 7f3c 31bf 1b2f 19be e395 2e3d 260f dc3e
00000160: 1cc3 be3e 64f8 13be 293a 303f dac6 12bb
00000170: e3e4 0c3e eb50 0b3f dda0 103e abd0 fb3e
00000180: 04ea ae3e 1a8a fabc 35f6 30be 6c09 c4bd
00000190: 98c9 3e3f e5e1 cd3e 408e 42bd b501 163d
000001a0: 3dac 8b3e 6f0d 3cbf 09f2 17bf 2ca0 85bc
000001b0: 04f7 4abf 3597 32bf 060e 203f 5969 8abf
000001c0: 1807 313f ab20 36bf 17b4 b3be d022 4839
000001d0: f652 7c3f 5b87 20bf 0cc9 c2bf ca8f 7a3f
000001e0: 2650 a6be 7f77 233d 8559 3a3e 76d5 743e
000001f0: 9f0f 96be 0254 8dbe a0f5 8abd 11a7 5b3f
00000200: a959 29bf 237e 753d 2910 03be b40d 8dbe
00000210: 1ef8 38bd 809f 17be 390d 82be 8031 cbbe
00000220: b22d 2dbe c056 e93e 7125 37bf 5fe1 0cbf
00000230: 45aa 76bf 9adc 043f 44e7 4abf 0395 ac3e
00000240: c4fb 033f 3ed6 f73d d27a c83e 8095 363f
00000250: c8fc 753e 2c7a 243f 4f88 83bf a2b7 c83e
00000260: 7979 a6be bb6b 9bbe 1a7b c73d 31a7 9ebe
00000270: bcfb cf3e bb75 433d 3ccd 7f3e 7866 62be
00000280: 5a94 cc3d 2e95 4dbe 8012 60bf d0cd 8fbe
00000290: f8d8 883d eb1c 55bf 2ec6 c0bc 4b5f c1be
000002a0: e3bc ccbe b562 fcbe ac54 f03e c222 5d3e
000002b0: 50a6 293e 99d4 993d 6fbf 233f b4be 58bf
000002c0: c65c aa3d 1d55 523e c121 8cbf 6fc0 98be
000002d0: bb07 bdbd ab2f 09be 4e61 a83f 6092 5f3e
000002e0: 4c27 f43f 1f69 80bf 9821 2b3f 5c6c bbbf
000002f0: 20bf e03e 5e11 713e 3337 583d fd7c 1cbf
00000300: 1a00 13bf e858 15be ba11 26bf b33a 663e
00000310: 7627 593d 9b44 243f 7938 a0be c6fc 26be
00000320: 5fad b2be b121 6ebe b108 62be d286 903e
00000330: 558e c43e d7a2 9ebe 9660 5c3e 63f0 edbe
00000340: 4d94 b1be 67cd a53e cbff af3e afb6 2e3e
00000350: 7f49 2abf 74c2 05be 3185 1f3d cafe d93e
00000360: 633c c33e 656f 0fbe 32bb 373f 91a6 df3b
00000370: 4e6b 263e b6f6 043f 998d ca3d 5102 ef3e
00000380: 53ad bf3e 3a38 83bd 0ee3 26be c390 9fbd
00000390: fa60 3d3f eecc cb3e 79eb a8bd 88bc ed3c
000003a0: d6da 8e3e 2dc0 42bf f802 16bf 060e 37bd
000003b0: de27 4ebf 87c6 28bf e970 233f 7571 8cbf
000003c0: 1ac5 363f 9cc2 37bf 51b8 acbe 3195 c23a
000003d0: 7e47 7f3f eaa1 25bf f98f c5bf 5df1 723f
000003e0: b2b7 99be 6a30 9a3d 7332 173e 1c71 783e
000003f0: 7519 8ebe a0e2 7dbe 1208 5bbd e6f8 6d3f

linear.bias f4 [937]
-24.350567 -24.34981 -7.233811 -24.350086 -24.353668 -24.350763 -6.5573616 -4.624774
-24.351572 -7.498178 -24.35055 -24.349693 -5.572069 -24.350399 -3.6893785 -24.35109
-24.349104 -24.348309 -24.349415 -24.35188 -5.1091185 -6.208529 -4.4790373 -24.351288
-5.685779 -24.349474 -5.971167 -24.35168 -24.34876 -24.350777 -24.350079 -24.353777
-24.351416 -7.0651298 -24.351807 -24.35471 -5.683468 -5.3581405 -24.35147 -5.942884
-24.349247 -5.99588 -8.6947775 -24.352453 -24.352608 -24.348425 -24.35115 -24.350317
-24.35142 -24.353199 -24.351843 -6.584659 -7.2822294 -6.3345637 -24.349854 -5.5488095
-24.353104 -24.352394 -24.348219 -6.5805473 -5.8427033 -7.3187957 -24.35077 -24.351274
-24.350367 -24.350735 -5.4386 -5.174998 -24.351587 -6.6732283 -24.350597 -24.34931
-3.0726726 -2.8316338 -24.353914 -24.34948 -24.352196 -24.35447 -24.349457 -4.6777544
-24.348417 -24.349983 -24.349415 -3.1016848 -24.348621 -24.353386 -7.4401574 -24.353785
-24.350859 -24.35291 -24.351995 -6.856198 -3.7984219 -3.661849 -24.353024 -4.7676783
-6.514812 -24.352453 -24.3511 -24.348295 -2.5944731 -24.356304 -24.35185 -24.351057
-6.5013065 -24.351553 -24.35177 -24.353071 -6.9728255 -24.350935 -24.351625 -7.6535797
-24.347588 -24.352436 -5.6342635 -24.351768 -6.730209 -6.947114 -24.35233 -6.526671
-2.4912884 -24.353811 -4.402104 -6.0158873 -24.351011 -24.35352 -24.347488 -24.355423
-24.352098 -24.347261 -24.351484 -24.347546 -24.350132 -24.352028 -24.344482 -24.35402
-24.351784 -24.353394 -6.236299 -24.353115 -24.35384 -24.348867 -7.809967 -24.35258
-6.428268 -24.350412 -24.352398 -24.350843 -3.7448587 -24.349674 -24.34796 -4.10913
-24.35215 -24.35001 -3.3052998 -24.35158 -3.5726252 -24.35007 -24.349033 -24.348776
-4.733869 -6.824736 -24.349152 -24.352354 -5.207257 -24.34875 -6.755617 -7.2795053
-24.352688 -5.2236505 -24.34697 -24.35185 -24.351404 -24.352303 -5.018508 -5.559721
-24.353582 -8.403133 -6.5445137 -24.349161 -24.347767 -3.5425014 -6.4557047 -24.353851
-7.1860056 -3.4944546 -6.418765 -6.739053 -24.350622 -5.606671 -24.348448 -24.351444
-5.0188823 -4.945763 -3.5257597 -24.349821 -24.35 -7.5269675 -24.349716 -24.35009
-5.068723 -5.1200166 -24.352884 -3.1544642 -2.0039477 -24.352758 -24.352406 -24.351603
-24.352907 -24.352402 -24.34923 -24.349554 -5.7121906 -24.35096 -24.354166 -24.353329
-3.554241 -24.352966 -24.353046 -4.699791 -24.348362 -5.415584 -7.2388587 -24.351103
-24.351746 -6.139992 -24.35113 -24.352606 -4.72298 -4.2541957 -24.351414 -24.349306
-4.4932833 -24.348843 -24.34797 -24.350924 -24.35029 -24.35169 -24.34904 -24.352957
-5.2050934 -6.168994 -7.834878 -24.347069 -3.0004318 -6.01335 -24.349688 -24.35326
-5.725201 -24.349308 -5.5850277 -24.351446 -24.34997 -24.35157 -24.35157 -5.9944115
00000000: f6cd c2c1 69cc c2c1 617b e7c0 facc c2c1
00000010: 50d4 c2c1 5dce c2c1 e8d5 d1c0 26fe 93c0
00000020: 05d0 c2c1 13f1 efc0 edcd c2c1 2ccc c2c1
00000030: 644e b2c0 9ecd c2c1 c71e 6cc0 08cf c2c1
00000040: f7ca c2c1 56c9 c2c1 9acb c2c1 a6d0 c2c1
00000050: e67d a3c0 45ac c6c0 4654 8fc0 70cf c2c1
00000060: e7f1 b5c0 b9cb c2c1 cd13 bfc0 3ed0 c2c1
00000070: 43ca c2c1 64ce c2c1 f6cc c2c1 89d4 c2c1
00000080: b3cf c2c1 8b15 e2c0 80d0 c2c1 72d6 c2c1
00000090: f8de b5c0 e375 abc0 d0cf c2c1 1b2c bec0
000000a0: 42cb c2c1 40de bfc0 cf1d 0bc1 d3d1 c2c1
000000b0: 24d2 c2c1 93c9 c2c1 28cf c2c1 73cd c2c1
000000c0: b5cf c2c1 5ad3 c2c1 93d0 c2c1 87b5 d2c0
000000d0: 0608 e9c0 bfb4 cac0 80cc c2c1 d98f b1c0
000000e0: 28d3 c2c1 b4d1 c2c1 27c9 c2c1 d893 d2c0
000000f0: 6df7 bac0 9333 eac0 61ce c2c1 69cf c2c1
00000100: 8dcd c2c1 4ece c2c1 0309 aec0 9599 a5c0
00000110: 0dd0 c2c1 168b d5c0 06ce c2c1 63cb c2c1
00000120: aba6 44c0 7d39 35c0 d1d4 c2c1 bccb c2c1
00000130: 4cd1 c2c1 f4d5 c2c1 b0cb c2c1 2ab0 95c0
00000140: 8fc9 c2c1 c4cc c2c1 9acb c2c1 0182 46c0
00000150: fac9 c2c1 bcd3 c2c1 c515 eec0 8dd4 c2c1
00000160: 8fce c2c1 c2d2 c2c1 e3d0 c2c1 f965 dbc0
00000170: 5819 73c0 bc5b 6ac0 fed2 c2c1 d290 98c0
00000180: 5779 d0c0 d3d1 c2c1 0ecf c2c1 4fc9 c2c1
00000190: d90b 26c0 b6d9 c2c1 97d0 c2c1 f7ce c2c1
000001a0: b40a d0c0 fbcf c2c1 6dd0 c2c1 17d3 c2c1
000001b0: 6321 dfc0 b7ce c2c1 21d0 c2c1 20ea f4c0
000001c0: dcc7 c2c1 cad1 c2c1 e34b b4c0 6cd0 c2c1
000001d0: df5d d7c0 c24e dec0 92d1 c2c1 7dda d0c0
000001e0: 4571 1fc0 9bd4 c2c1 09de 8cc0 2682 c0c0
000001f0: dfce c2c1 02d4 c2c1 a8c7 c2c1 e8d7 c2c1
00000200: 19d1 c2c1 31c7 c2c1 d7cf c2c1 c6c7 c2c1
00000210: 12cd c2c1 f4d0 c2c1 80c1 c2c1 08d5 c2c1
00000220: 74d0 c2c1 c0d3 c2c1 c38f c7c0 2ed3 c2c1
00000230: aad4 c2c1 7bca c2c1 40eb f9c0 15d2 c2c1
00000240: 5fb4 cdc0 a5cd c2c1 b6d1 c2c1 87ce c2c1
00000250: c4ab 6fc0 22cc c2c1 9fc8 c2c1 fe7d 83c0
00000260: 34d1 c2c1 d2cc c2c1 088a 53c0 09d0 c2c1
00000270: e4a5 64c0 f2cc c2c1 d2ca c2c1 4bca c2c1
00000280: db7b 97c0 3d64 dac0 10cb c2c1 9fd1 c2c1
00000290: d9a1 a6c0 3dca c2c1 042e d8c0 b5f1 e8c0
000002a0: 4ed2 c2c1 2528 a7c0 98c6 c2c1 97d0 c2c1
000002b0: adcf c2c1 84d1 c2c1 9e97 a0c0 3ce9 b1c0
000002c0: 23d4 c2c1 3c73 06c1 a86c d1c0 15cb c2c1
000002d0: 3ac8 c2c1 58b8 62c0 2295 cec0 b0d4 c2c1
000002e0: c2f3 e5c0 25a5 5fc0 8666 cdc0 52a6 d7c0
000002f0: 13ce c2c1 d969 b3c0 9fc9 c2c1 c2cf c2c1
00000300: af9a a0c0 b143 9ec0 0ca6 61c0 6fcc c2c1
00000310: cdcc c2c1 ebdc f0c0 38cc c2c1 fccc c2c1
00000320: fb32 a2c0 2dd7 a3c0 b5d2 c2c1 bee2 49c0
00000330: ae40 00c0 73d2 c2c1 bad1 c2c1 15d0 c2c1
00000340: c1d2 c2c1 b8d1 c2c1 39cb c2c1 e3cb c2c1
00000350: 44ca b6c0 c4ce c2c1 55d5 c2c1 9ed3 c2c1
00000360: af78 63c0 e0d2 c2c1 0ad3 c2c1 b064 96c0
00000370: 72c9 c2c1 774c adc0 bba4 e7c0 0fcf c2c1
00000380: 60d0 c2c1 d17a c4c0 1dcf c2c1 23d2 c2c1
00000390: a722 97c0 5f22 88c0 b2cf c2c1 61cb c2c1
000003a0: fac8 8fc0 6eca c2c1 a4c8 c2c1 b1ce c2c1
000003b0: 65cd c2c1 43d0 c2c1 d5ca c2c1 dbd2 c2c1
000003c0: 2090 a6c0 6668 c5c0 52b7 fac0 ccc6 c2c1
000003d0: 1307 40c0 5d6d c0c0 29cc c2c1 7ad3 c2c1
000003e0: d934 b7c0 62cb c2c1 8cb8 b2c0 c3cf c2c1
000003f0: bdcc c2c1 04d0 c2c1 04d0 c2c1 38d2 bfc0
