pokemonModel.pt (torch, 562167 bytes, 3 tensors)

embeddings.weight f4 [545, 128]
-1.5255959 -0.7502318 -0.6539809 -1.6094848 -0.10016718 -0.6091889 -0.97977227 -1.6090963
-0.7121446 0.303722 -0.7773143 -0.25145525 -0.22227049 1.6871134 0.22842517 0.4676355
-0.6969724 -1.1607615 0.6995424 0.19908163 0.8656924 0.24440393 -0.66291136 0.80730826
1.1016806 -0.17593604 -2.2455578 -1.446458 0.061155282 -0.6177445 -0.79806983 -0.13162321
1.8793458 -0.07213178 0.1577706 -0.7734549 0.1990565 0.045702778 0.15295692 -0.4756788
-0.11101983 0.29273525 -0.15784515 -0.02878714 2.357111 -1.0373387 1.5747981 -0.6298472
-0.9273917 0.5451415 0.06628026 -0.43704012 0.7626006 0.44151092 1.1651385 2.0153918
0.13741246 0.9386447 -0.18600109 -0.6446393 1.5392458 -0.8695876 -3.3311536 -0.74787223
-0.025502462 -1.0233306 -0.59618515 -1.0055307 -0.2106063 -0.0075475276 1.6734272 0.010342831
-0.70395666 -0.1852658 -0.9962351 -0.83125526 -0.46102202 -0.56008244 0.39557618 -0.9822771
-0.5064866 0.099775404 -0.6539734 0.7316937 -1.4343859 -0.50081307 0.17163314 -0.15999313
0.2546335 -0.5019573 -1.0412 0.7322672 -1.0483401 -0.4708772 0.29113635 1.9907043
0.6614453 1.1899205 0.8165339 -0.9135236 1.3851457 -0.81384623 -0.92757654 1.1119633
1.3352057 0.6042736 -0.10344208 -0.15121692 -2.102083 -0.62002194 -1.478231 -1.1334175
0.8737963 -0.5602594 1.2857845 0.81682384 0.2053041 0.30510718 0.535687 -0.431185
2.5581384 -0.23336388 -0.01347213 1.8606348 -1.9804063 1.7985829 0.10181159 0.340006
0.01793978 0.05446291 -0.02644305 -0.034193408 -0.15494226 -0.11868125 -0.20892748 -0.050498355
0.0793039 0.1530421 0.028109066 -0.003929679 -0.045405284 -0.21088997 -0.1255049 -0.08614317
0.059594892 -0.00585751 -0.078270264 0.078646205 -0.16315624 -0.0009819036 -0.112058155 -0.029839877
0.14736432 -0.16284938 -0.027053017 0.09263741 0.005623125 0.013630513 0.0005347683 0.10390487
0.04069196 -0.12372976 -0.16630556 -0.017453354 -0.100819044 0.07579682 0.0004426892 0.06201317
-0.12253599 0.08553511 -0.008676477 0.13772571 -0.06403994 0.16987872 0.026895402 -0.049078096
-0.09141797 0.004824878 -0.02898297 -0.060006935 -0.044151716 0.039395016 0.058622975 -0.23182109
-0.098169185 0.04262007 0.005578598 -0.13081667 0.05467141 -0.1610261 -0.029549215 -0.16630869
0.11512595 -0.1355525 0.14583306 -0.06524888 -0.0071843807 0.107599124 -0.032811545 -0.03293727
0.0036333555 -0.14278851 0.03487187 0.11167904 -0.008680356 0.14074369 0.016489128 0.0676913
-0.020598432 -0.012429561 0.113286495 0.048446897 0.057111766 -0.005261204 -0.009530931 0.15550128
0.027790723 -0.05166316 0.11352122 0.09694567 0.0054175747 0.005237666 0.011485676 -0.031426907
0.009373875 0.052035846 0.15840288 0.08246276 -0.08190633 -0.034785926 -0.049752664 0.0004659865
0.0004799693 0.17470056 -0.0678871 -0.019256398 -0.053291034 0.13081235 -0.08045141 0.09944931
-0.12503824 -0.05808615 -0.14859173 0.15696542 -0.028591698 0.007007599 -0.050420746 -0.0036367679
-0.07205361 -0.22735922 0.011756444 0.0052812216 -0.023631196 -0.03723573 -0.012753494 -0.07378209
00000000: ba46 c3bf 310f 40bf 4b6b 27bf 9903 cebf
00000010: 7324 cdbd cef3 1bbf 5bd2 7abf def6 cdbf
00000020: 1c4f 36bf 7381 9b3e 12fe 46bf bebe 80be
00000030: e09a 63be 55f3 d73f 4ae8 693e ec6d ef3e
00000040: c96c 32bf d593 94bf 3615 333f 0edc 4b3e
00000050: 049e 5d3f 0645 7a3e 8fb4 29bf c1ab 4e3f
00000060: df03 8d3f 9428 34be 38b7 0fc0 8925 b9bf
00000070: f67d 7a3d 8124 1ebf 4e4e 4cbf 3cc8 06be
00000080: 678e f03f d4b9 93bd 9e8e 213e 2401 46bf
00000090: 78d5 4b3e d632 3b3d bda0 1c3e 2c8c f3be
000000a0: 5d5e e3bd 65e1 953e 29a2 21be 02d3 ebbc
000000b0: e8da 1640 84c7 84bf fc92 c93f ab3d 21bf
000000c0: 8b69 6dbf 658e 0b3f f2bd 873d b9c3 dfbe
000000d0: cb39 433f b80d e23e 4223 953f 2efc 0040
000000e0: dab5 0c3e 054b 703f 1277 3ebe 1507 25bf
000000f0: 0206 c53f 4b9d 5ebf 9f31 55c0 8e74 3fbf
00000100: 8aea d0bc 7ffc 82bf 979f 18bf 3bb5 80bf
00000110: 2ea9 57be 4051 f7bb dd32 d63f fa74 293c
00000120: 8136 34bf 51b6 3dbe 4309 7fbf 25cd 54bf
00000130: 140b ecbe 9061 0fbf f688 ca3e 8376 7bbf
00000140: 1ba9 01bf 0c57 cc3d cd6a 27bf 4750 3b3f
00000150: f599 b7bf 4935 00bf 99c0 2f3e 3dd5 23be
00000160: 525f 823e 4680 00bf 0b46 85bf dd75 3b3f
00000170: 0230 86bf d116 f1be d30f 953e 66cf fe3f
00000180: 7b54 293f 514f 983f 5e08 513f afdc 69bf
00000190: 744c b13f 3a58 50bf a875 6dbf d054 8e3f
000001a0: 05e8 aa3f adb1 1a3f 71d9 d3bd 9cd8 1abe
000001b0: 8788 06c0 c2b9 1ebf ac36 bdbf d313 91bf
000001c0: 1db1 5f3f 296d 0fbf 9694 a43f 5e1b 513f
000001d0: 3d3b 523e 0237 9c3e c922 093f 48c4 dcbe
000001e0: 8ab8 2340 f1f6 6ebe 35ba 5cbc 4829 ee3f
000001f0: f47d fdbf f737 e63f 9882 d03d 4415 ae3e
00000200: 72f6 923c 8014 5f3d 189f d8bc 630e 0cbd
00000210: 2fa9 1ebe 280f f3bd 16f1 55be 5dd7 4ebd
00000220: 156a a23d 11b7 1c3e fc44 e63c 89c4 80bb
00000230: e4fa 39bd 8af3 57be 5b84 00be d56b b0bd
00000240: c619 743d 5bf0 bfbb 294c a0bd 4311 a13d
00000250: 6e12 27be 38b3 80ba bf7e e5bd c272 f4bc
00000260: ace6 163e fdc1 26be 4a9e ddbc afb8 bd3d
00000270: 3142 b83b 8452 5f3c b12f 0c3a 14cc d43d
00000280: 9dac 263d 0766 fdbd 014c 2abe 56fa 8ebc
00000290: 377a cebd 5d3b 9b3d bd18 e839 8601 7e3d
000002a0: 26f4 fabd 082d af3d c827 0ebc f807 0d3e
000002b0: 5f27 83bd b0f4 2d3e bf53 dc3c 1d06 49bd
000002c0: 5839 bbbd 031a 9e3b b26d edbc d5c9 75bd
000002d0: 6ed8 34bd ab5c 213d a51e 703d 8262 6dbe
000002e0: ed0c c9bd 6292 2e3d accc b63b cef4 05be
000002f0: 21ef 5f3d 07e4 24be 3211 f2bc d34c 2abe
00000300: 27c7 eb3d 46ce 0abe 4355 153e 34a1 85bd
00000310: f46a ebbb ee5c dc3d 6665 06bd 3be9 06bd
00000320: 971d 6e3b 2737 12be ced5 0e3d fbb7 e43d
00000330: 0d38 0ebc 1d1f 103e 3514 873c bca1 8a3d
00000340: 0bbe a8bc 5ba5 4bbc c002 e83d 4170 463d
00000350: 07ee 693d 2e66 acbb 9f27 1cbc ba3b 1f3e
00000360: 5fa9 e33c c09c 53bd d07d e83d 748b c63d
00000370: e985 b13b baa0 ab3b 6b2e 3c3c 80b9 00bd
00000380: e294 193c 8a23 553d 5d34 223e 3ce2 a83d
00000390: 82be a7bd b07b 0ebd 73c9 4bbd a64f f439
000003a0: 64a4 fb39 b4e4 323e 6408 8bbd 98bf 9dbc
000003b0: b347 5abd acf3 053e b5c3 a4bd 14ac cb3d
000003c0: 060a 00be beeb 6dbd 6e28 18be 8bbb 203e
000003d0: 2339 eabc 00a0 e53b fc85 4ebd d756 6ebb
000003e0: d890 93bd dbd0 68be 1a9e 403c 190e ad3b
000003f0: 3696 c1bc 7e84 18bd 08f4 50bc 101b 97bd

linear.weight f4 [545, 128]
-0.05320055 0.01078631 0.07008975 0.1565638 -0.024008697 -0.07851952 -0.1104635 0.034723762
-0.06465093 0.1657878 0.06731604 0.10564324 -0.15990405 -0.15491845 -0.0926672 -0.11759249
-0.04277516 -0.20824493 0.19169602 -0.057374913 -0.12557527 -0.04038968 -0.012237064 -0.068174556
-0.058478843 -0.05840552 0.14143993 0.007561502 0.029692631 -0.10484737 -0.05260453 -0.13449103
0.18351853 -0.004568159 -0.06237368 -0.13664615 -0.0001708669 0.05820141 -0.06711988 -0.1460071
0.08323251 -0.086375326 -0.12391304 0.122435756 -0.11793936 -0.080463015 0.0686785 -0.13786909
0.12268548 0.15116628 -0.017294355 0.026999963 -0.079292215 0.2566346 -0.15404482 0.050454147
-0.05186764 -0.1769139 -0.1417232 -0.0986228 0.19385265 0.0021550292 0.05313475 -0.08376996
0.07074507 -0.16548385 -0.23944716 0.13188113 0.00080837123 0.14217554 -0.1554533 0.106312975
0.023341447 -0.33346462 0.07178804 0.055711348 -0.050173346 -0.23617749 0.059323553 0.25644672
-0.029544061 -0.059470322 -0.015019569 0.1780314 -0.002144299 -0.13221237 -0.367168 -0.036394004
0.1150808 0.11487056 0.2901567 0.16154148 -0.18325624 -0.1145195 0.37019995 -0.024316795
0.029079538 -0.058606964 -0.14621623 0.071256995 -0.011901627 -0.044925693 -0.09909677 -0.014466871
-0.056586564 0.01829548 -0.05036508 -0.05833613 0.10865803 0.27188486 0.079216376 0.016948974
-0.095109686 0.06810084 -0.1288388 0.19877951 -0.1362727 -0.029048579 0.32727477 -0.045806546
0.14766324 -0.3044681 -0.30968446 0.028154628 0.06566924 -0.16542646 0.01711612 -0.011815504
0.23064965 -0.35165185 0.4093304 0.15544267 -0.11792377 -0.29432577 -0.09118032 0.0987124
0.20167166 -0.05309556 -0.18769348 -0.22040862 -0.2717763 -0.52768916 -0.0035611857 -0.85494536
0.13217668 -0.056383643 -0.24910937 -1.1853569 0.04738966 -0.029721042 -0.6105839 -0.36434916
-0.34285492 -0.08930738 0.32803306 0.17185643 0.28111604 -0.44880927 0.20778207 0.17417406
0.18725422 0.11285178 0.18697883 -0.20171267 -0.1804449 0.54899377 0.062309083 0.05503334
-0.24362287 0.5639076 -0.2197881 0.27144518 -0.09360477 0.28022584 0.27501163 -0.1941425
-0.46389142 0.2548222 0.1318942 0.17373408 -0.22602458 -0.3569512 -0.1033335 0.06382382
0.6821086 -0.2466892 0.13025054 -0.16482143 -0.007955096 0.22542559 -0.12543526 0.17849004
0.119664505 0.27179614 0.29774565 0.43672848 0.10270652 0.611876 0.11570776 0.36436442
0.5812083 -0.32784387 0.2646555 0.0652367 -0.42698434 -1.00321 0.4146076 0.17749365
0.026891476 0.17912623 -0.046866927 0.48008072 -0.054966666 -0.016060432 0.0020831788 -0.46298274
-0.47701052 -0.02534097 0.06714895 0.15547206 -0.18295696 0.09365693 -0.07605716 0.05676943
0.12175127 -0.31029662 -0.12949048 -0.07343282 -0.24446446 -0.70561457 0.32998276 -0.012604151
0.24935347 0.114344135 -0.15764919 0.022680132 0.21782112 0.00515587 0.012113072 -0.77713937
-0.30883294 -0.061209034 -0.29958877 -0.031646214 -0.4774473 -0.23697835 0.50460094 0.044818982
0.16373761 -0.024598334 -0.74524605 0.35305968 -0.207106 -0.064551905 -0.28265792 0.11139593
00000000: d2e8 59bd 10b9 303c 378b 8f3d 4352 203e
00000010: e3ad c4bc d8ce a0bd b03a e2bd 813a 0e3d
00000020: b567 84bd 47c4 293e fedc 893d 7c5b d83d
00000030: e3bd 23be f1a2 1ebe 4dc8 bdbd 55d4 f0bd
00000040: 0235 2fbd 293e 55be f64b 443e f501 6bbd
00000050: ce96 00be a66f 25bd f77d 48bc 1a9f 8bbd
00000060: 8387 6fbd a03a 6fbd a1d5 103e 7ac6 f73b
00000070: f63d f33c 38ba d6bd d977 57bd 04b8 09be
00000080: 48ec 3b3e 7fb0 95bb 8b7b 7fbd f8ec 0bbe
00000090: bc2a 33b9 9a64 6e3d 2676 89bd e382 15be
000000a0: ce75 aa3d 8ce5 b0bd 1fc6 fdbd 99bf fa3d
000000b0: 318a f1bd cbc9 a4bd 50a7 8c3d 8e2d 0dbe
000000c0: 8642 fb3d 55cb 1a3e e4ac 8dbc 072f dd3c
000000d0: f563 a2bd 9c65 833e edbd 1dbe 02a9 4e3d
000000e0: 2a73 54bd eb28 35be e31f 11be c0fa c9bd
000000f0: 4f81 463e 643b 0d3b d3a3 593d 968f abbd
00000100: cbe2 903d 9974 29be a331 75be d90b 073e
00000110: e0e8 533a 7796 113e 262f 1fbe 9eba d93d
00000120: 9036 bf3c e0bb aabe 9c05 933d 9531 643d
00000130: 9182 4dbd 83d8 71be 41fd 723d fc4c 833e
00000140: 6306 f2bc 2797 73bd a314 76bc dd4d 363e
00000150: 5e87 0cbb ae62 07be 72fd bbbe e111 15bd
00000160: 7caf eb3d 4241 eb3d 6b8f 943e 216b 253e
00000170: 86a7 3bbe 3389 eabd d98a bd3e 0434 c7bc
00000180: 3638 ee3c db0d 70bd b5b9 15be 30ef 913d
00000190: 0bff 42bc 0104 38bd 3ff3 cabd 7406 6dbc
000001a0: 50c7 67bd 67e0 953c 9d4b 4ebd def1 6ebd
000001b0: 1a88 de3d 7e34 8b3e 323c a23d 93d8 8a3c
000001c0: dec8 c2bd 7478 8b3d 52ee 03be db8c 4b3e
000001d0: 128b 0bbe 49f7 edbc 8f90 a73e a59f 3bbd
000001e0: 0835 173e 3ee3 9bbe f68e 9ebe 89a4 e63c
000001f0: 987d 863d 8e65 29be 1b37 8c3c d195 41bc
00000200: 6c2f 6c3e b60b b4be c193 d13e 5d2c 1f3e
00000210: 0482 f1bd deb1 96be bfbc babd ba29 ca3d
00000220: 0483 4e3e bb7a 59bd b832 40be ccb2 61be
00000230: 4326 8bbe a316 07bf c862 69bb b3dd 5abf
00000240: 5359 073e 89f2 66bd 8716 7fbe c6b9 97bf
00000250: a91b 423d 8b79 f3bc 3a4f 1cbf f98b babe
00000260: ae8a afbe cae6 b6bd f3f3 a73e 22fb 2f3e
00000270: 71ee 8f3e 54ca e5be d3c4 543e af5a 323e
00000280: 92bf 3f3e d61e e73d 6177 3f3e c48d 4ebe
00000290: 8cc6 38be db8a 0c3f cf37 7f3d a46a 613d
000002a0: 4678 79be 405c 103f 2210 61be ddfa 8a3e
000002b0: dcb3 bfbd c379 8f3e 53ce 8c3e 4bcd 46be
000002c0: 2d83 edbe 0e78 823e 460f 073e 59e7 313e
000002d0: fd72 67be 4fc2 b6be 84a0 d3bd 10b6 823d
000002e0: ab9e 2e3f 189c 7cbe 6660 053e f3c6 28be
000002f0: 1756 02bc f7d5 663e 1a72 00be 18c6 363e
00000300: aa12 f53d dd28 8b3e 1e72 983e e09a df3e
00000310: cc57 d23d e8a3 1c3f 31f8 ec3d f98d ba3e
00000320: 11ca 143f 27db a7be ed80 873e d29a 853d
00000330: b19d dabe 2f69 80bf 7347 d43e e5c0 353e
00000340: 834b dc3c de6c 373e 89f7 3fbd 24cd f53e
00000350: ba24 61bd 2b91 83bc f185 083b 130c edbe
00000360: b93a f4be de97 cfbc 6485 893d 1134 1f3e
00000370: 1259 3bbe 34cf bf3d dbc3 9bbd 1087 683d
00000380: bb58 f93d 33df 9ebe 2799 04be f263 96bd
00000390: e454 7abe 28a3 34bf 80f3 a83e a481 4ebc
000003a0: 8456 7f3e 422d ea3d ca6e 21be afcb b93c
000003b0: 800c 5f3e 93f2 a83b e875 463c 9bf2 46bf
000003c0: 5a1f 9ebe 53b6 7abd b363 99be 769f 01bd
000003d0: f973 f4be 74aa 72be 872d 013f 1c94 373d
000003e0: d5aa 273e 7282 c9bc 72c8 3ebf 3dc4 b43e
000003f0: 9813 54be ca33 84bd 8ab8 90be 8d23 e43d

linear.bias f4 [545]
-19.449923 -0.4530052 -19.449549 -0.53439754 -0.41381848 -0.609558 -0.51854515 -0.45918423
-0.43748423 -0.5378571 -19.449831 -0.06531104 -0.51210064 -1.2584552 -1.1589446 -2.2259145
-2.4130008 -2.2058928 -2.6539507 -2.1995308 -1.912164 -2.281416 -2.4556775 -2.300646
-2.5306532 -3.1245878 -2.1588635 -1.9752601 -1.9637722 -2.7345052 -2.5593884 -2.202014
-2.7923539 -19.449558 -0.23426166 -0.42430717 -1.1989335 -1.0940604 -1.0816048 -1.080372
-0.3525498 -0.23817393 -0.5433584 -0.47286528 -0.816829 -1.3564572 -1.1312025 -1.0711131
-19.448175 -0.29219157 -0.34053844 -0.26694834 -19.447956 -19.45087 -19.448507 -0.36611968
-0.55824655 -0.45920458 -1.2710576 -1.237695 -0.3936421 -0.6463505 -0.5639411 -0.50333166
-0.38720527 -1.5886586 -1.7354621 -1.2651671 -0.22859713 -0.12018661 -0.4191103 -0.5631768
-0.51321685 -0.60933465 -0.41075796 -0.52114636 -0.3567096 -0.18408471 -0.3822736 -19.450556
-0.42077 -0.49492458 -0.40311193 -0.2503704 -0.5471385 -0.6876967 -19.447762 -19.448755
0.0048763826 -0.3410424 -0.52907044 -0.40009364 -0.36108017 -0.50495976 -0.4174901 -0.2825449
-0.21070327 -0.03971146 -0.5021299 -1.0446945 -1.3941691 -0.38705072 -0.4546674 -0.35341063
-19.451393 -19.449097 -19.44742 -19.448097 -19.449604 -0.7984096 -1.0970932 -0.6099615
-0.20493072 -0.40099993 -19.450455 -0.56158376 -0.3897428 -0.44337463 -0.29294404 -0.5595107
-0.4660426 -0.71875477 -1.0609043 -1.2377594 -1.1690856 -1.2638061 -0.5478438 -19.448431
-0.32989603 -0.3721957 -0.5835518 -19.45098 -0.94236624 -0.9786562 -19.449337 -0.24738231
-1.1814368 -0.84789264 -19.44887 -0.3517513 -0.44656157 -0.040123697 -19.44775 -19.45064
-19.450579 -0.42834195 -0.4369332 -19.451569 -0.26919943 -0.36485115 -0.4180346 -0.5509105
-0.3068344 -2.258207 -0.2941893 -19.449444 -0.426438 -0.27670926 -0.29886094 -0.3401519
-0.15574083 -19.450912 -0.39021033 -0.31209373 -0.42831048 -1.0031521 -0.4185577 -0.5209313
-0.47117206 -1.1620842 -0.81144816 -0.39043063 -0.60232997 -0.48747826 -0.4812816 -0.3407539
-0.5680069 -0.5228893 -1.0908669 -1.1734254 -19.451403 -1.1090071 -1.3981342 -0.48578474
-19.448847 -0.25145593 -19.450962 -0.27139175 -0.67015016 -0.3628761 -19.448456 -0.5240078
-0.16102499 -0.48805755 -0.5319304 -0.4113796 -0.31651035 -0.3412718 -0.5418707 -0.25403377
-0.22384043 -0.254674 -0.25227836 -0.44588652 -19.450949 -19.45045 -19.449715 -0.53483826
-19.448635 -1.1206805 -0.88573354 -0.4133553 -0.3507632 -19.448034 -0.17857145 -0.2321691
-0.32327288 -19.45035 -0.9270621 -1.0130006 -0.36891282 -0.41064566 -19.45014 -0.4641369
-19.451084 -0.4308528 -0.66205907 -0.37111858 -0.40308553 -0.3465813 -0.6206207 -0.23822252
-0.1649068 -0.5072618 -0.46495926 -19.451023 -0.43125844 -0.47876754 -19.44752 -0.68189615
-0.27643844 -0.2825419 -0.5769129 -0.48357525 -0.627219 -0.31933594 -0.59342194 -0.17728008
-19.449398 -19.448317 -19.450716 -0.9241466 -1.2735269 -19.448933 -19.450974 -19.450523
00000000: 7199 9bc1 4cf0 e7be ad98 9bc1 47ce 08bf
00000010: 04e0 d3be fe0b 1cbf 60bf 04bf 321a ebbe
00000020: effd dfbe 01b1 09bf 4199 9bc1 cbc1 85bd
00000030: 0719 03bf 0f15 a1bf 4c58 94bf 6275 0ec0
00000040: 9b6e 1ac0 592d 0dc0 54da 29c0 1dc5 0cc0
00000050: cac1 f4bf b802 12c0 d229 1dc0 c93d 13c0
00000060: 39f6 21c0 3ff9 47c0 d22a 0ac0 53d5 fcbf
00000070: e35c fbbf 2202 2fc0 05cd 23c0 cced 0cc0
00000080: edb5 32c0 b298 9bc1 4ae2 6fbe ca3e d9be
00000090: a776 99bf 2c0a 8cbf 0772 8abf a149 8abf
000000a0: 6881 b4be dee3 73be 8919 0bbf 661b f2be
000000b0: b51b 51bf 64a0 adbf 3ecb 90bf 3c1a 89bf
000000c0: dd95 9bc1 229a 95be 0e5b aebe 74ad 88be
000000d0: 6a95 9bc1 629b 9bc1 8b96 9bc1 0a74 bbbe
000000e0: 3fe9 0ebf dd1c ebbe 04b2 a2bf ca6c 9ebf
000000f0: 758b c9be 3a77 25bf 725e 10bf 58da 00bf
00000100: c53f c6be 2a59 cbbf 9f23 debf fff0 a1bf
00000110: 5e15 6abe 6624 f6bd a095 d6be 5b2c 10bf
00000120: 2e62 03bf 5bfd 1bbf de4e d2be d969 05bf
00000130: a4a2 b6be b480 3cbe 5eb9 c3be bd9a 9bc1
00000140: 2a6f d7be c166 fdbe b064 cebe 8d30 80be
00000150: 4511 0cbf e40c 30bf 0495 9bc1 0d97 9bc1
00000160: 10ca 9f3b 1c9d aebe 2971 07bf 13d9 ccbe
00000170: 80df b8be 0b45 01bf 43c1 d5be baa9 90be
00000180: 99c2 57be 7ca8 22bd 968b 00bf 8db8 85bf
00000190: 2274 b2bf 832b c6be 2aca e8be 3df2 b4be
000001a0: 749c 9bc1 c097 9bc1 5194 9bc1 b495 9bc1
000001b0: ca98 9bc1 9264 4cbf 8d6d 8cbf 7026 1cbf
000001c0: 5cd9 51be dd4f cdbe 889a 9bc1 f4c3 0fbf
000001d0: 5e8c c7be 0002 e3be c3fc 95be 183c 0fbf
000001e0: 239d eebe 5000 38bf b6cb 87bf e66e 9ebf
000001f0: 99a4 95bf 66c4 a1bf 7e3f 0cbf 6396 9bc1
00000200: 22e8 a8be 6f90 bebe a763 15bf 9b9b 9bc1
00000210: ea3e 71bf 3689 7abf 3e98 9bc1 ca51 7dbe
00000220: 5239 97bf 7e0f 59bf 4997 9bc1 bf18 b4be
00000230: b8a3 e4be bf58 24bd fe94 9bc1 e99a 9bc1
00000240: c99a 9bc1 a34f dbbe b5b5 dfbe d09c 9bc1
00000250: 82d4 89be c5cd babe a208 d6be 7808 0dbf
00000260: 6619 9dbe 7786 10c0 fb9f 96be 7698 9bc1
00000270: 1556 dabe d6ac 8dbe 4d04 99be 6428 aebe
00000280: 867a 1fbe 789b 9bc1 a6c9 c7be c0ca 9fbe
00000290: 834b dbbe 4a67 80bf 324d d6be c15b 05bf
000002a0: 773d f1be 2dbf 94bf 11bb 4fbf 86e6 c7be
000002b0: 4c32 1abf c096 f9be 8b6a f6be 4c77 aebe
000002c0: e668 11bf 13dc 05bf 87a1 8bbf ce32 96bf
000002d0: 799c 9bc1 f2f3 8dbf 10f6 b2bf c7b8 f8be
000002e0: 3d97 9bc1 d5be 80be 929b 9bc1 dcf3 8abe
000002f0: f68e 2bbf e5ca b9be 7096 9bc1 6025 06bf
00000300: bce3 24be aee2 f9be 972c 08bf 59a0 d2be
00000310: a50d a2be 2dbb aebe 0ab8 0abf b710 82be
00000320: 6d36 65be a164 82be a12a 81be 3d4b e4be
00000330: 8b9b 9bc1 869a 9bc1 0499 9bc1 29eb 08bf
00000340: ce96 9bc1 7572 8fbf 6fbf 62bf 4ea3 d3be
00000350: 3c97 b3be 9395 9bc1 6fdb 36be bdbd 6dbe
00000360: 0684 a5be 519a 9bc1 f153 6dbf 01aa 81bf
00000370: 24e2 bcbe 2640 d2be e399 9bc1 5aa3 edbe
00000380: d29b 9bc1 bd98 dcbe b47c 29bf 4103 bebe
00000390: 3a61 cebe 1b73 b1be 00e1 1ebf 9bf0 73be
000003a0: 54dd 28be e9db 01bf 240f eebe b29b 9bc1
000003b0: e8cd dcbe 0521 f5be 8594 9bc1 bf90 2ebf
000003c0: 5789 8dbe 55a9 90be 90b0 13bf 2d97 f7be
000003d0: 6d91 20bf 0080 a3be 80ea 17bf e988 35be
000003e0: 5e98 9bc1 2796 9bc1 119b 9bc1 df94 6cbf
000003f0: ee02 a3bf 6a97 9bc1 989b 9bc1 ac9a 9bc1
