pokemonModel.pt (torch, 464503 bytes, 3 tensors)

embeddings.weight f4 [450, 128]
00000000: ba46 c3bf 310f 40bf 4b6b 27bf 9903 cebf
00000010: 7324 cdbd cef3 1bbf 5bd2 7abf def6 cdbf
00000020: 1c4f 36bf 7381 9b3e 12fe 46bf bebe 80be
00000030: e09a 63be 55f3 d73f 4ae8 693e ec6d ef3e
00000040: c96c 32bf d593 94bf 3615 333f 0edc 4b3e
00000050: 049e 5d3f 0645 7a3e 8fb4 29bf c1ab 4e3f
00000060: df03 8d3f 9428 34be 38b7 0fc0 8925 b9bf
00000070: f67d 7a3d 8124 1ebf 4e4e 4cbf 3cc8 06be
00000080: 678e f03f d4b9 93bd 9e8e 213e 2401 46bf
00000090: 78d5 4b3e d632 3b3d bda0 1c3e 2c8c f3be
000000a0: 5d5e e3bd 65e1 953e 29a2 21be 02d3 ebbc
000000b0: e8da 1640 84c7 84bf fc92 c93f ab3d 21bf
000000c0: 8b69 6dbf 658e 0b3f f2bd 873d b9c3 dfbe
000000d0: cb39 433f b80d e23e 4223 953f 2efc 0040
000000e0: dab5 0c3e 054b 703f 1277 3ebe 1507 25bf
000000f0: 0206 c53f 4b9d 5ebf 9f31 55c0 8e74 3fbf
00000100: 8aea d0bc 7ffc 82bf 979f 18bf 3bb5 80bf
00000110: 2ea9 57be 4051 f7bb dd32 d63f fa74 293c
00000120: 8136 34bf 51b6 3dbe 4309 7fbf 25cd 54bf
00000130: 140b ecbe 9061 0fbf f688 ca3e 8376 7bbf
00000140: 1ba9 01bf 0c57 cc3d cd6a 27bf 4750 3b3f
00000150: f599 b7bf 4935 00bf 99c0 2f3e 3dd5 23be
00000160: 525f 823e 4680 00bf 0b46 85bf dd75 3b3f
00000170: 0230 86bf d116 f1be d30f 953e 66cf fe3f
00000180: 7b54 293f 514f 983f 5e08 513f afdc 69bf
00000190: 744c b13f 3a58 50bf a875 6dbf d054 8e3f
000001a0: 05e8 aa3f adb1 1a3f 71d9 d3bd 9cd8 1abe
000001b0: 8788 06c0 c2b9 1ebf ac36 bdbf d313 91bf
000001c0: 1db1 5f3f 296d 0fbf 9694 a43f 5e1b 513f
000001d0: 3d3b 523e 0237 9c3e c922 093f 48c4 dcbe
000001e0: 8ab8 2340 f1f6 6ebe 35ba 5cbc 4829 ee3f
000001f0: f47d fdbf f737 e63f 9882 d03d 4415 ae3e
00000200: 81b4 acbb f69c 4cbd 7100 413d 49d2 8a3c
00000210: 9d45 333d 926d 0ebd 5113 bebc 9e9c f5bc
00000220: 208f 0e3e 29fc 59bd 0241 14be 0989 f2bc
00000230: a39c 33be efca f53d 6b35 83bc 065a 78bd
00000240: 0388 3d3e a812 89bd 0ff5 423d f055 75bb
00000250: d576 89bc 81ed d83d 98e4 edbc 33b3 ad3c
00000260: 8014 c63c 1e5d 693c f795 c5bd 84aa e2bc
00000270: 52fb a33d dfe3 943b f4ac 883d bd6b 05be
00000280: 6885 563e 3807 29be 8eac 8ebd 74d8 073e
00000290: 9e67 203d ec35 09be 4f6b 833d 40fb 973d
000002a0: cca5 79bd 5117 353e 3274 ed3c bebe b23c
000002b0: d932 4abe b5b9 163e 6db5 053e effc ac3d
000002c0: a156 273d 4de3 e13b 0607 713d b379 a83d
000002d0: 7738 3bbc 786e 0cbe 8438 81bd 7096 0ebe
000002e0: 9c5c bdbd 2cc2 04bd ccb0 d7bb e261 bcbd
000002f0: f2b6 04be 3ed5 b4bd a198 4bbd ce7c 1c3c
00000300: f46e 853d d0ce 2c3c 5970 29be 869d 313c
00000310: ff56 e4bd b89b 273d aaaf 463d 3f02 3abc
00000320: 3fe3 7bbe ab1d 803b 2a6d 9f3c 2f8c 82be
00000330: 1d7e 49bc 3a27 633c 92ce 4b3e 1a0d 433c
00000340: c720 d93d 8ed2 0e3d 38ef adbc 9ff2 28bd
00000350: 0904 c1bc 5f39 e9bd e084 02be f881 20be
00000360: e077 e5bc 1617 0a3d 743c ea3d 649a ecbc
00000370: e782 babd 4635 ac3d cdb6 dcbd 4003 0ebd
00000380: 0917 1b3e aa82 9bbd 1b95 02be ce91 ab3c
00000390: 2747 923e ac22 33bc 760c 01bd a5b3 a1bc
000003a0: e6d0 85bc 7278 a5bd aea4 4ebd 450a 093e
000003b0: e48b 073e c2f9 f5bc ea76 813d 5ffa cdbd
000003c0: 911c 08be ae75 06bd bb4c 913d 4094 82bc
000003d0: 7b59 893d 13bd a5bd 8eeb 443d bd7b 863d
000003e0: 70be ef3d 0209 213d 6248 493d 129b a0bd
000003f0: b339 97bb 711f 3fbd e1d8 acbc a9b0 803d
-1.5255959 -0.7502318 -0.6539809 -1.6094848 -0.10016718 -0.6091889 -0.97977227 -1.6090963
-0.7121446 0.303722 -0.7773143 -0.25145525 -0.22227049 1.6871134 0.22842517 0.4676355
-0.6969724 -1.1607615 0.6995424 0.19908163 0.8656924 0.24440393 -0.66291136 0.80730826
1.1016806 -0.17593604 -2.2455578 -1.446458 0.061155282 -0.6177445 -0.79806983 -0.13162321
1.8793458 -0.07213178 0.1577706 -0.7734549 0.1990565 0.045702778 0.15295692 -0.4756788
-0.11101983 0.29273525 -0.15784515 -0.02878714 2.357111 -1.0373387 1.5747981 -0.6298472
-0.9273917 0.5451415 0.06628026 -0.43704012 0.7626006 0.44151092 1.1651385 2.0153918
0.13741246 0.9386447 -0.18600109 -0.6446393 1.5392458 -0.8695876 -3.3311536 -0.74787223
-0.025502462 -1.0233306 -0.59618515 -1.0055307 -0.2106063 -0.0075475276 1.6734272 0.010342831
-0.70395666 -0.1852658 -0.9962351 -0.83125526 -0.46102202 -0.56008244 0.39557618 -0.9822771
-0.5064866 0.099775404 -0.6539734 0.7316937 -1.4343859 -0.50081307 0.17163314 -0.15999313
0.2546335 -0.5019573 -1.0412 0.7322672 -1.0483401 -0.4708772 0.29113635 1.9907043
0.6614453 1.1899205 0.8165339 -0.9135236 1.3851457 -0.81384623 -0.92757654 1.1119633
1.3352057 0.6042736 -0.10344208 -0.15121692 -2.102083 -0.62002194 -1.478231 -1.1334175
0.8737963 -0.5602594 1.2857845 0.81682384 0.2053041 0.30510718 0.535687 -0.431185
2.5581384 -0.23336388 -0.01347213 1.8606348 -1.9804063 1.7985829 0.10181159 0.340006
-0.005270541 -0.049954377 0.04711956 0.016945975 0.04376756 -0.034772463 -0.02320257 -0.029981907
0.13921785 -0.053218994 -0.14477924 -0.02960636 -0.17540221 0.12001597 -0.016016683 -0.060632728
0.18508916 -0.066930115 0.047596987 -0.0037435256 -0.016780296 0.10592175 -0.029039666 0.021203613
0.024179697 0.014243392 -0.09647744 -0.027669199 0.0800692 0.004543766 0.06673613 -0.1302938
0.20949328 -0.1650666 -0.06966506 0.13266164 0.039161317 -0.13399476 0.06416952 0.07420969
-0.06094913 0.17684676 0.02898607 0.021819469 -0.1974596 0.14719279 0.1305749 0.08446681
0.0408541 0.0068935514 0.05884459 0.08226337 -0.0114270365 -0.13714015 -0.063096076 -0.13924575
-0.092461795 -0.03241174 -0.006582355 -0.09198357 -0.12960413 -0.08829735 -0.049706105 0.00955124
0.06515303 0.010547355 -0.16546763 0.010840779 -0.11149406 0.04091999 0.04850737 -0.011353075
-0.24598406 0.0039097867 0.019461233 -0.25497577 -0.012298134 0.013864333 0.19903019 0.011904979
0.10601955 0.03486877 -0.021232232 -0.041247007 -0.023561494 -0.11387896 -0.12746 -0.15674579
-0.028011262 0.033713423 0.11437312 -0.028882213 -0.09106999 0.084085986 -0.10777054 -0.03467107
0.15145506 -0.075932816 -0.12752192 0.020943549 0.2856991 -0.010933559 -0.031506024 -0.019738982
-0.016334962 -0.08079614 -0.05045002 0.13382824 0.13236958 -0.03002632 0.06321509 -0.1005752
-0.13292147 -0.03282707 0.07094713 -0.015939832 0.0670652 -0.08092704 0.048076205 0.0656657
0.11706245 0.03931523 0.049141295 -0.07842077 -0.0046150326 -0.046660844 -0.02109951 0.06283695

linear.weight f4 [450, 128]
00000000: e2c6 95bc 495d a3bc 28f7 503d b4a9 443d
00000010: b0ca bfbc c5fb 28bd c4f9 1e3d 4d5d bcbd
00000020: 2531 bf3c 3818 90bd fbfb bc3d e2f9 533d
00000030: 4be6 21be 6f31 e4bc 09d0 1bbe 12e6 f8bc
00000040: 5773 afbc ab69 eb3d ed5d d2bc 61b9 0abe
00000050: 8f86 0bbe a876 97bd f3ee 063c fb90 a33d
00000060: 379a 033d 7dc4 453d 4eef 2dbd 0ee6 963d
00000070: bd16 c9bb 4178 28be 1c97 e93d 7227 b9bd
00000080: 9d46 9fbd 1177 16bd 6cf1 a23d 2a86 cc3c
00000090: 834a 94bd f3ca 973d ebbe c93d 5098 373d
000000a0: 8d0e 4dbc e182 fcb9 f1aa dbbd d57b 113c
000000b0: fd82 20be 2b66 57bd d6c1 903d 7aa9 e1bd
000000c0: a742 b4bd 2ac3 423d 3649 07bc b307 24bd
000000d0: e5b1 be3d d703 65bd 927a 1b3e 4761 503e
000000e0: 9cb8 d0bd ef46 9ebd b138 94bc 9b9e e03c
000000f0: 0017 b13c 00bf 123d e637 0c3e c483 40bd
00000100: 97e0 26be f555 75bd c8e7 bcbc f17c 203d
00000110: 82bd 7dbd 83cd aa3a d4ec 00be 36e4 b33b
00000120: e219 71bd 9f6b bebd 1fdc 123e 4a81 7c3c
00000130: 42d6 c1bd c8bd 43be 4eb7 8dbc d634 043d
00000140: 3865 0a3e 961e 1dbd ddef 2cbd d5f0 373d
00000150: 3a8a c2bb 165e 63bd 6049 b73d 2aad f83d
00000160: eb82 76bc c08d 413b 10a7 e53d 4f57 9a3b
00000170: 9ad7 3cbd e1c5 40bc 849f 5a3e 340b 913c
00000180: 03e6 fc3d 87f9 813d 5ed7 013d 06a3 953d
00000190: d7fb 943d 8ec2 61bd 8bb8 733d eced ec3d
000001a0: 9659 dfba 0a80 8cbb 5406 943d c652 a3bd
000001b0: 98ce 553d fa7b 9b3d 7abd 863e 98f2 00be
000001c0: 39f7 e9bd ac1c cbbb f5fb c3bd c145 03bd
000001d0: c2cf c13d 0355 603b 6607 06bb 8c44 7d3a
000001e0: 8196 f33d 2ee7 8abe 81b1 063b cfbd 92bc
000001f0: ff92 6fbd 98a6 fc3d 2c3b e2bb 911c 3b3b
00000200: ee08 1a3e 743f 583e 8b57 913e 0d6c d0be
00000210: 363d bebe bfb9 dfbd 2b9f c23e 1430 abbe
00000220: 4cc8 17bf 31d3 50bf 08db 423e 4739 8cbe
00000230: 5a28 75bd 1398 ca3e bb19 44be 53f2 4cbd
00000240: 69ac bc3e df25 9abe d2af ff3d bea9 9a3e
00000250: 618f edbe da59 8f3d 32a4 5b3d 2e79 093e
00000260: 33e0 5e3d e206 a8bd 4b16 023e 847a 9c3e
00000270: 3191 8c3e 325c dfbe c9f6 f63c ee10 a13e
00000280: 4707 0b3e dc22 d6bd 93d2 3c3e cec8 e9be
00000290: 4c63 fc3e ceef 7c3e add4 edbd 0f3f 21bc
000002a0: 6e0e d23d f16a d8be 17c0 ecbd 9760 a03e
000002b0: 7b4c 7fbe 9dc4 4a3f 5ad0 93be 9e04 35be
000002c0: 7d56 07bf dcbd db3c ef8f bbbb 9460 0abe
000002d0: 46ee a23e 460b db3d 1282 6bbe e4e6 bebe
000002e0: a6e1 b6bd 24ba f23d 0f2b bc3e abdb 32be
000002f0: 0759 d33c d17c 80be 2c2a c83e 4d37 d9bd
00000300: dbd1 f23d a9d1 553e 786e 853e c6c1 7f3e
00000310: c653 043f b737 e73e 8596 93be 4d78 5e3f
00000320: 1e88 f83e c9f3 ddbe 70f9 633e 4caa 63bf
00000330: 5aea 21be f4d2 95be 2b4c 9ebe 2acf 32be
00000340: 0b05 d53e d18c b43d 9a81 6b3a ffba ccbd
00000350: c88e fdbd 5ed9 53bd 9e93 2f3c 8d96 823e
00000360: 94db 6abe bdeb 8ebe ff7e b5bd c66d a5bd
00000370: e143 16be 540b f3bd b6ed 24bf a6d0 c13e
00000380: 8b4c c73e ef73 a53c 907c 25bb c8d2 54be
00000390: df60 ef3e 1801 5abe e8c5 433e 11e9 69be
000003a0: 532c 0fbd 9e00 de3e 2b49 083f 9799 55be
000003b0: ba8a 27bf cc8e bd3d 8720 8b3e fe61 80be
000003c0: 43d1 82be 6f59 36bd daf5 873d 2c14 ef3d
000003d0: 46ae 5c3c d889 6abe 82db 57bc c396 623d
000003e0: d8d7 293d b5ab 473d 9475 c9be 7dda da3d
000003f0: b307 58bd 95b9 01bf c9a6 98be 43a6 f9be
-0.018283311 -0.019941943 0.051016957 0.048013404 -0.023412079 -0.04125573 0.038812414 -0.09197483
0.023338864 -0.07035869 0.09227749 0.05175198 -0.15810506 -0.027855603 -0.15216078 -0.030383144
-0.021417303 0.11494764 -0.025679553 -0.13547279 -0.13625549 -0.07395679 0.008235681 0.07986637
0.032129493 0.04828309 -0.042464547 0.07368098 -0.006136744 -0.16452123 0.11405775 -0.09040727
-0.0777714 -0.036734644 0.07956204 0.024966318 -0.072407745 0.07411756 0.09850868 0.04482299
-0.012515676 -0.00048162698 -0.10725964 0.0088796215 -0.15674968 -0.05258767 0.07068221 -0.11018653
-0.088017754 0.047549404 -0.008257201 -0.040046405 0.093112744 -0.055911865 0.15183476 0.20349608
-0.101914614 -0.07728373 -0.018093439 0.027419379 0.021617413 0.035826683 0.13693199 -0.04700066
-0.16296612 -0.05989643 -0.02305974 0.039181653 -0.061948307 0.0013031218 -0.12590343 0.0054898513
-0.058862574 -0.09297871 0.14341782 0.015411684 -0.094646946 -0.19115365 -0.01729932 0.03227695
0.13515174 -0.038359247 -0.04222094 0.04490741 -0.005936888 -0.05550965 0.08949542 0.121424034
-0.015045862 0.0029533952 0.11213505 0.004710115 -0.04610405 -0.011765928 0.21349913 0.017705537
0.12348559 0.06346422 0.03169953 0.07306485 0.07274597 -0.055117182 0.059502166 0.115688175
-0.0017040248 -0.0042877244 0.072277695 -0.07974772 0.052198976 0.07592006 0.26316434 -0.12592542
-0.11424107 -0.0061984863 -0.09569541 -0.032048944 0.09463455 0.0034230358 -0.0020451187 0.00096613984
0.11893941 -0.271295 0.0020552578 -0.017912773 -0.058489796 0.12336463 -0.0069040265 0.0028550962
0.15042469 0.21117955 0.28387102 -0.40707436 -0.37156075 -0.109241 0.3801206 -0.33435118
-0.59290004 -0.8157225 0.19028866 -0.2738745 -0.059852935 0.39569148 -0.1915044 -0.050035786
0.3685029 -0.30107018 0.12484707 0.30207628 -0.46398452 0.0699956 0.053623386 0.13425133
0.05441303 -0.08204438 0.12703817 0.30562222 0.27454522 -0.43625027 0.030146973 0.3145823
0.13576995 -0.10455868 0.18439703 -0.45661014 0.49294508 0.24700853 -0.1161283 -0.0098416945
0.102566585 -0.4226909 -0.11560076 0.31323692 -0.24931519 0.7920626 -0.28869897 -0.17677543
-0.52866346 0.02682393 -0.0057239453 -0.13513404 0.31822413 0.106955096 -0.22998837 -0.3728553
-0.08929758 0.1185191 0.367516 -0.17466609 0.025799287 -0.25095227 0.39094675 -0.10606251
0.11856433 0.2088076 0.26060843 0.24976262 0.5169033 0.45159695 -0.28825775 0.86902314
0.4854135 -0.43350056 0.22263122 -0.8893173 -0.15812054 -0.29262507 -0.30917487 -0.1746184
0.4160541 0.08815921 0.0008983851 -0.09996604 -0.12380749 -0.05172097 0.010716347 0.25505486
-0.22935325 -0.2791423 -0.08862113 -0.08077578 -0.14674331 -0.11867395 -0.6442522 0.378545
0.38925585 0.020196883 -0.0025251247 -0.20783532 0.46753594 -0.2128948 0.19118464 -0.22842814
-0.03495438 0.43359846 0.53236645 -0.20859371 -0.65446055 0.09255752 0.27173254 -0.25074762
-0.2555028 -0.044518884 0.06638689 0.11673769 0.013469284 -0.22904146 -0.013174893 0.05531956
0.04146561 0.048747737 -0.39347517 0.106862046 -0.052741718 -0.506738 -0.29814747 -0.4875966

linear.bias f4 [450]
00000000: f414 9cc1 ea67 fdbe 0d6b 1abf 1ba0 84be
00000010: cc61 d7be 447e b3be ddd1 0ebf dd59 05bf
00000020: ac20 25bf 559b e4be 9838 1abf 028c 97bf
00000030: e61b 6abf a23f 07c0 77db 2fc0 9ac2 25c0
00000040: e888 28c0 1d7d 0dc0 4c17 07c0 c0fc 02c0
00000050: 7308 3dc0 f106 20c0 a935 0cc0 084f 5dc0
00000060: b5a4 14c0 df7c 2bc0 7c18 13c0 7a7b 2fc0
00000070: 3325 00c0 a497 23c0 3af0 18c0 089a 0dbf
00000080: 2591 19bf 7a73 87bf c7e1 9ebf ca07 91bf
00000090: 5b41 adbf 196e 0dbf f841 e2be a997 d9be
000000a0: 1684 f4be 582c 92bf 5aa2 c5bf bfe6 aabf
000000b0: 8b17 80bf dcb4 acbd 077e e1be 3d91 b9be
000000c0: 9fdb 12bf 4ea0 26bf d16d b4be 48ce abbf
000000d0: 7306 65bf 8479 94be 175a 50bf 159b 0ebf
000000e0: d117 2ebf 3c3c 0ebf d384 dabf e605 cdbf
000000f0: a088 bebf 2150 febe 2e86 f3be aa5e 03bf
00000100: 4e21 26bf 7730 c6be c240 fcbe 8e2d 28bf
00000110: bd05 07bf 79b0 babe e13f c1be d944 cebe
00000120: c338 0abf 3080 32bf 14dd ccbe 22ea 03bf
00000130: 8b44 09bf 2bcc 19bf 2105 24be 00d0 12bf
00000140: bfbb 25bf 13c9 bebe 640d d8be bc05 1fbf
00000150: 627f 03bf 178a 8bbe 8db0 b2be 6919 68be
00000160: 1079 7abe be1a bfbf f605 cebf 5442 e4be
00000170: 5a3a 0abf 9943 8dbe 9901 a1bf cd96 9abf
00000180: 8540 cabe a77c d5be f45c cbbe 0f15 00bf
00000190: 272c a8be 23e5 e3be 3a5b 02bf 08e4 24bf
000001a0: 9ba7 1ebf cd4a 54be fd27 95bf 87a2 b9bf
000001b0: 1cee 92bf 93fe b2bf 2b54 06bf 138f 69be
000001c0: 6fda 8ebe c6b1 39bf bf39 8cbf 3bc6 7cbf
000001d0: ccb0 f0be 3d81 9dbf 87ce 9cbf 33e2 afbe
000001e0: e8f0 47be 71fa e3be 5007 9dbe a64c 10bf
000001f0: 51f7 a2be a898 ccbe f05d f9be 81f8 c7be
00000200: 5848 dfbe 6b9a 0ec0 3410 1ec0 f701 f8bf
00000210: ed41 00c0 2dfe ecbf 0450 02bf 8e46 a3be
00000220: 9e97 1abf 5327 03bf 5ecd d9be 7b86 e9be
00000230: e5fe d6be ebcb 00bf cecf 42bf 85e1 95bf
00000240: 5d4a 9ebf 33a8 e1be 4258 e2be da5d dcbe
00000250: 3a06 7abf e0b2 5ebf 4ea7 c5be a81a efbe
00000260: 94fd 04bf da48 adbe 3d4f b6be 89b0 33bf
00000270: cd35 3ebf 6b75 97bf ba14 a2bf bec6 96bf
00000280: cdb9 bbbf 3fea 2dbf 682e c8be e990 b8be
00000290: 1a2b 04bf 732c a7be 0c5a 0cbf 8498 f4be
000002a0: 021c b2be 7b08 1bbf 996a 01bf c25c 0cbf
000002b0: 71dd 1cbf b978 01bf 87fb bcbe e5a0 53be
000002c0: 76c2 1abf 5a23 a8be ca14 f4be 11df 38bf
000002d0: d409 83bf f05b 8fbf c125 03bf 9fa4 28bf
000002e0: 20be 94be 7542 c5be c700 85be ce5d 87bf
000002f0: 3c7a d1bf 8a30 00bf adb9 e1be e62c 07bf
00000300: a663 bcbe e6bd 34bf 0b03 02bf 86cc 0fbf
00000310: c80e 0dbf e228 85be a2b5 d4be 2492 e4be
00000320: 13c0 8fbe 43e8 2ebf 7314 d5be 6e73 88be
00000330: 1e02 babe d477 f8be 9d2e bfbe 3e26 e2be
00000340: ca7a e5be fc12 b1be 5da3 aabe 4de2 0cbf
00000350: 8b5b b5be 7ed8 91bf 953f d0bf 2d8c d4be
00000360: eec0 a3be 13a9 bfbf 5c90 e7bf 60c9 e8be
00000370: 597f febe 91c0 09bf 869f 3cbf 2f7a 30bf
00000380: 14c3 e1be 9e11 09bf 3836 adbf f82c c6bf
00000390: 0eda b7bf 0dec dbbe 3aff cbbe 87f1 dcbe
000003a0: 0848 96be c62a 07bf 5dcc 19bf 2a1f bbbe
000003b0: e264 29bf c315 a6bf 3ae4 81bf 6795 fcbe
000003c0: 787f ebbe 41a3 2bbf 51fe 63be c5a4 3dbf
000003d0: a749 e3be d281 c0be d904 39bf 6a0c d0be
000003e0: 5ebc 12bf 4bda 06bf c545 f8be 8857 a3bf
000003f0: a507 b8bf 3ab9 13bf c911 e6be 6440 8abf
-19.510231 -0.49493343 -0.60319597 -0.259034 -0.420668 -0.3505727 -0.55788976 -0.52090245
-0.6450298 -0.4464976 -0.60242605 -1.1839602 -0.9144882 -2.1132588 -2.74777 -2.5900025
-2.633356 -2.2107613 -2.110797 -2.0466766 -2.9536407 -2.5004237 -2.1907752 -3.4579487
-2.322553 -2.6794965 -2.2983694 -2.7419114 -2.0022705 -2.5561304 -2.3896623 -0.5531316
-0.599871 -1.0582116 -1.2412652 -1.1330502 -1.353557 -0.5524612 -0.44190955 -0.4249852
-0.47757024 -1.1419783 -1.5440171 -1.3351668 -1.0007185 -0.08432934 -0.44041464 -0.3624362
-0.57366365 -0.65088356 -0.35240033 -1.3422327 -0.89462966 -0.2899896 -0.81387466 -0.55705386
-0.6800509 -0.5556066 -1.7071785 -1.6017425 -1.4885445 -0.49670509 -0.47563308 -0.5131632
-0.6489457 -0.3870885 -0.49268156 -0.6569451 -0.5274313 -0.36462763 -0.37744048 -0.40286902
-0.5399286 -0.6972685 -0.4001242 -0.51529133 -0.53620213 -0.6007716 -0.16017582 -0.5734863
-0.647396 -0.37262782 -0.42197716 -0.62118125 -0.51366246 -0.27253792 -0.34900323 -0.22665943
-0.24460244 -1.4930036 -1.6095569 -0.44581854 -0.5399529 -0.27590635 -1.2578613 -1.2077271
-0.3950235 -0.41696665 -0.39719355 -0.5003213 -0.32846186 -0.44510755 -0.5092045 -0.6441045
-0.61974496 -0.20731659 -1.1652828 -1.4502724 -1.1478915 -1.398394 -0.5247218 -0.22808485
-0.27901027 -0.72536886 -1.0955123 -0.98739976 -0.47009885 -1.2305065 -1.2250527 -0.34352264
-0.19525492 -0.4452701 -0.30669641 -0.56366956 -0.31829312 -0.39960217 -0.4870448 -0.3905678
-0.4360988 -2.228175 -2.469739 -1.93756 -2.0040238 -1.8515068 -0.50903344 -0.31889766
-0.603876 -0.5123188 -0.42539495 -0.45610413 -0.41991344 -0.50311154 -0.76098335 -1.1709448
-1.2366444 -0.44073638 -0.4420796 -0.43040353 -0.9766575 -0.8699169 -0.38604206 -0.46700025
-0.5194943 -0.33844644 -0.3560733 -0.70191246 -0.74300843 -1.1832708 -1.2662575 -1.1779401
-1.4666077 -0.67935556 -0.39097905 -0.36048058 -0.5162827 -0.326511 -0.548249 -0.4777261
-0.34786993 -0.60559815 -0.5055328 -0.5482904 -0.6127539 -0.50574833 -0.3691065 -0.20666845
-0.60452974 -0.3283947 -0.4767211 -0.7221537 -1.0237374 -1.1199932 -0.5122948 -0.6587619
-0.29051304 -0.38527265 -0.25977156 -1.0575502 -1.6365428 -0.50074065 -0.44086972 -0.52802885
-0.36794776 -0.7060226 -0.50785893 -0.56171453 -0.5510068 -0.26007754 -0.41544825 -0.44642746
-0.28076228 -0.68323153 -0.41617164 -0.26650566 -0.3632974 -0.48528922 -0.3734025 -0.441698
-0.44820243 -0.34584796 -0.3332776 -0.5503281 -0.35421404 -1.1394193 -1.6269404 -0.41513196
-0.3198313 -1.4973472 -1.809093 -0.45466137 -0.49706534 -0.5380946 -0.73680913 -0.6893644
-0.44094145 -0.53542507 -1.3532171 -1.5482473 -1.436342 -0.4295353 -0.3984316 -0.4315302
-0.2935183 -0.5279964 -0.6007746 -0.36547214 -0.6616956 -1.2975391 -1.0147774 -0.49332735
-0.45995688 -0.6704598 -0.22264983 -0.74079543 -0.4439213 -0.37599045 -0.7227302 -0.4063447
-0.57318676 -0.5267684 -0.4849073 -1.2761087 -1.4377333 -0.5770451 -0.44935444 -1.08009
