deprecated/moveModel.pt (torch, 966114 bytes, 3 tensors)

embeddings.weight f4 [938, 128]
-1.5255959 -0.7502318 -0.6539809 -1.6094848 -0.10016718 -0.6091889 -0.97977227 -1.6090963
-0.7121446 0.303722 -0.7773143 -0.25145525 -0.22227049 1.6871134 0.22842517 0.4676355
-0.6969724 -1.1607615 0.6995424 0.19908163 0.8656924 0.24440393 -0.66291136 0.80730826
1.1016806 -0.17593604 -2.2455578 -1.446458 0.061155282 -0.6177445 -0.79806983 -0.13162321
1.8793458 -0.07213178 0.1577706 -0.7734549 0.1990565 0.045702778 0.15295692 -0.4756788
-0.11101983 0.29273525 -0.15784515 -0.02878714 2.357111 -1.0373387 1.5747981 -0.6298472
-0.9273917 0.5451415 0.06628026 -0.43704012 0.7626006 0.44151092 1.1651385 2.0153918
0.13741246 0.9386447 -0.18600109 -0.6446393 1.5392458 -0.8695876 -3.3311536 -0.74787223
-0.025502462 -1.0233306 -0.59618515 -1.0055307 -0.2106063 -0.0075475276 1.6734272 0.010342831
-0.70395666 -0.1852658 -0.9962351 -0.83125526 -0.46102202 -0.56008244 0.39557618 -0.9822771
-0.5064866 0.099775404 -0.6539734 0.7316937 -1.4343859 -0.50081307 0.17163314 -0.15999313
0.2546335 -0.5019573 -1.0412 0.7322672 -1.0483401 -0.4708772 0.29113635 1.9907043
0.6614453 1.1899205 0.8165339 -0.9135236 1.3851457 -0.81384623 -0.92757654 1.1119633
1.3352057 0.6042736 -0.10344208 -0.15121692 -2.102083 -0.62002194 -1.478231 -1.1334175
0.8737963 -0.5602594 1.2857845 0.81682384 0.2053041 0.30510718 0.535687 -0.431185
2.5581384 -0.23336388 -0.01347213 1.8606348 -1.9804063 1.7985829 0.10181159 0.340006
0.71236455 -1.7765073 0.35386458 1.1996132 -0.3029974 -1.7618417 0.6348446 -0.8043591
-1.6111118 -1.8716129 0.5430836 0.6606786 2.2952116 0.67490596 1.7133216 -1.7942734
-1.3632672 -0.9832196 1.5112667 0.64187074 0.4729638 -0.4285901 0.55137074 -1.5473709
0.5181121 0.10653535 0.26924077 1.324768 1.7460191 1.854969 -0.7063691 2.5570862
0.4175343 -0.2127186 -0.839958 -0.42001787 -0.6240363 -0.9772961 0.8748428 0.9872814
0.30957633 1.52069 1.2052339 -1.815591 -0.40346155 -0.9591451 -0.005207704 -0.07886314
0.8436543 1.1657013 0.5269322 1.6192533 -0.96397626 0.14152038 -0.16366096 -0.35822257
1.7222793 -0.3035756 0.2388742 1.3440012 0.10322569 1.1003542 -0.3416802 0.9473389
-0.56851596 0.8375962 1.7836607 -0.19542466 0.5149161 -1.8474776 -2.9167426 -0.5673299
-0.5412802 0.895174 -0.882507 0.53181124 -1.5457772 -0.17329982 0.72824633 0.05706102
0.9055172 1.0462948 -0.520597 1.3547838 0.23519313 1.9142433 1.8364111 1.3245324
-0.96900916 1.2516364 1.2103242 -0.5279206 0.21856615 -0.57430726 1.4571251 1.7709557
1.6499138 -0.43200457 -0.2710269 -1.4391626 1.2470404 1.2738512 0.39094925 0.3872105
-0.07982872 0.3417243 0.9488273 -1.3839359 1.7240863 -2.3647652 -0.9294909 0.2936253
0.21513203 0.9384637 1.4657077 -0.5564744 -0.7448408 -0.20215721 -0.2296679 0.0013313366
0.3752759 -0.5810679 -0.57230884 1.0097175 -0.10564939 -1.179696 -0.090779595 0.56311435
00000000: ba46 c3bf 310f 40bf 4b6b 27bf 9903 cebf
00000010: 7324 cdbd cef3 1bbf 5bd2 7abf def6 cdbf
00000020: 1c4f 36bf 7381 9b3e 12fe 46bf bebe 80be
00000030: e09a 63be 55f3 d73f 4ae8 693e ec6d ef3e
00000040: c96c 32bf d593 94bf 3615 333f 0edc 4b3e
00000050: 049e 5d3f 0645 7a3e 8fb4 29bf c1ab 4e3f
00000060: df03 8d3f 9428 34be 38b7 0fc0 8925 b9bf
00000070: f67d 7a3d 8124 1ebf 4e4e 4cbf 3cc8 06be
00000080: 678e f03f d4b9 93bd 9e8e 213e 2401 46bf
00000090: 78d5 4b3e d632 3b3d bda0 1c3e 2c8c f3be
000000a0: 5d5e e3bd 65e1 953e 29a2 21be 02d3 ebbc
000000b0: e8da 1640 84c7 84bf fc92 c93f ab3d 21bf
000000c0: 8b69 6dbf 658e 0b3f f2bd 873d b9c3 dfbe
000000d0: cb39 433f b80d e23e 4223 953f 2efc 0040
000000e0: dab5 0c3e 054b 703f 1277 3ebe 1507 25bf
000000f0: 0206 c53f 4b9d 5ebf 9f31 55c0 8e74 3fbf
00000100: 8aea d0bc 7ffc 82bf 979f 18bf 3bb5 80bf
00000110: 2ea9 57be 4051 f7bb dd32 d63f fa74 293c
00000120: 8136 34bf 51b6 3dbe 4309 7fbf 25cd 54bf
00000130: 140b ecbe 9061 0fbf f688 ca3e 8376 7bbf
00000140: 1ba9 01bf 0c57 cc3d cd6a 27bf 4750 3b3f
00000150: f599 b7bf 4935 00bf 99c0 2f3e 3dd5 23be
00000160: 525f 823e 4680 00bf 0b46 85bf dd75 3b3f
00000170: 0230 86bf d116 f1be d30f 953e 66cf fe3f
00000180: 7b54 293f 514f 983f 5e08 513f afdc 69bf
00000190: 744c b13f 3a58 50bf a875 6dbf d054 8e3f
000001a0: 05e8 aa3f adb1 1a3f 71d9 d3bd 9cd8 1abe
000001b0: 8788 06c0 c2b9 1ebf ac36 bdbf d313 91bf
000001c0: 1db1 5f3f 296d 0fbf 9694 a43f 5e1b 513f
000001d0: 3d3b 523e 0237 9c3e c922 093f 48c4 dcbe
000001e0: 8ab8 2340 f1f6 6ebe 35ba 5cbc 4829 ee3f
000001f0: f47d fdbf f737 e63f 9882 d03d 4415 ae3e
00000200: 865d 363f 9764 e3bf bd2d b53e ed8c 993f
00000210: 7a22 9bbe 0784 e1bf 2d85 223f 7aea 4dbf
00000220: e938 cebf 0391 efbf 8707 0b3f 3c22 293f
00000230: bfe4 1240 a3c6 2c3f 1f4e db3f c0aa e5bf
00000240: 8a7f aebf 48b4 7bbf 3071 c13f a451 243f
00000250: 5028 f23e 2970 dbbe a226 0d3f 4010 c6bf
00000260: ffa2 043f 352f da3d edd9 893e ff91 a93f
00000270: 8e7d df3f a06f ed3f 9bd4 34bf 4da7 2340
00000280: 0ec7 d53e e8d2 59be 7d07 57bf 950c d7be
00000290: d8c0 1fbf 1430 7abf b3f5 5f3f 79be 7c3f
000002a0: ca80 9e3e f8a5 c23f 1b45 9a3f 4965 e8bf
000002b0: 8392 cebe 898a 75bf 63a5 aabb ff82 a1bd
000002c0: baf9 573f b335 953f 07e5 063f b143 cf3f
000002d0: 26c7 76bf b8ea 103e bd96 27be f368 b7be
000002e0: a673 dc3f 436e 9bbe 709b 743e 3b08 ac3f
000002f0: fe67 d33d 68d8 8c3f b5f0 aebe cd84 723f
00000300: 438a 11bf b46c 563f fe4e e43f 671d 48be
00000310: 8bd1 033f 257a ecbf e9ab 3ac0 883c 11bf
00000320: 5791 0abf 202a 653f fbeb 61bf c824 083f
00000330: 07dc c5bf 8275 31be 5a6e 3a3f d1b8 693d
00000340: facf 673f fdec 853f d845 05bf 8e69 ad3f
00000350: 78d6 703e ed05 f53f 850f eb3f 478a a93f
00000360: fc10 78bf 9f35 a03f e7eb 9a3f ce25 07bf
00000370: cecf 5f3e cd05 13bf 1383 ba3f adae e23f
00000380: 6030 d33f b42f ddbe 0ac4 8abe 7b36 b8bf
00000390: 059f 9f3f 8e0d a33f 802a c83e 7440 c63e
000003a0: 3d7d a3bd 7df6 ae3e 59e6 723f d024 b1bf
000003b0: dcae dc3f 5058 17c0 1ef3 6dbf 0e56 963e
000003c0: 924b 5c3e 283f 703f 4f9c bb3f 1b75 0ebf
000003d0: e3ad 3ebf 4d02 4fbe 102e 6bbe 3e80 ae3a
000003e0: 2a24 c03e dec0 14bf d582 12bf 6c3e 813f
000003f0: b55e d8bd 4700 97bf a7ea b9bd 4328 103f

linear.weight f4 [938, 128]
-0.5874529 -0.63621515 0.32657093 -0.28017348 0.40654275 -0.3084584 -0.3503152 0.24985492
-0.34774226 1.0375955 -0.11566286 0.46121076 -0.3111266 -0.009914485 -0.26126304 -1.017403
0.84493613 -0.6816731 -0.82766974 -0.18755022 -0.17350926 -0.17872715 0.30937114 0.036297176
0.38565615 0.10398363 0.03732605 -0.75320375 0.13489898 0.32096282 -0.31968376 -0.09265995
0.037570983 -0.14362974 0.20820986 0.115316086 -0.18494275 0.11315836 0.26595113 -0.26226258
-0.20599826 -0.06412585 0.6093651 0.88612944 -2.2539139 0.08177696 1.467534 -0.33950904
-0.55655897 0.57246804 -0.007532957 -0.037287842 1.5655197 0.47408077 0.12309015 -0.090034574
0.25982243 0.37176633 -0.060171053 0.6105713 0.671678 0.1587348 0.6363008 -0.43180856
-0.44278815 -0.008202719 -0.114616536 -0.6503234 0.02948854 -2.7167182 -0.14835459 -0.8918331
0.48471102 -0.17142636 0.3755728 0.41673812 0.12304276 0.4660449 0.6543839 -0.22744158
-0.8836833 0.5249388 -0.45072952 0.31594923 -0.7986183 -1.2685628 -0.5537869 -0.21054147
-0.13520205 0.87417597 -0.47311732 -0.4015415 -0.3462167 0.7569332 -0.38369727 0.5134945
0.49760795 -0.28489268 0.1161232 0.6303959 0.90287364 0.9239115 -0.12073626 0.04376994
0.70084345 0.9502971 -0.6665803 0.8596672 0.7429988 -0.14208756 1.0157971 0.6044538
0.21088581 0.13846932 -0.012087412 0.512853 0.09212987 1.4122821 0.1933864 1.0400351
-0.15965904 -0.11442932 -0.048305098 -0.41691354 -0.7103166 0.3331028 -0.34617555 0.5405895
-0.5964977 -0.64582783 0.28193745 -0.28688583 0.40687227 -0.29758677 -0.42254576 0.22280642
-0.30202046 1.0272455 -0.12114274 0.45662883 -0.31543276 0.024698777 -0.24727988 -0.9946553
0.8705625 -0.64655435 -0.8144548 -0.18875799 -0.20127858 -0.19649963 0.29556888 0.07332012
0.39599472 0.068749174 0.02701704 -0.7089207 0.11309742 0.34971648 -0.29639882 -0.09682637
0.050458897 -0.14431444 0.21125573 0.08820515 -0.13124181 0.11967446 0.25474256 -0.2576904
-0.19133918 -0.056731388 0.5807625 0.87917536 -2.2537642 0.092156 1.4554223 -0.34374765
-0.5721081 0.53540903 0.046998758 -0.030854704 1.5672743 0.43877098 0.15578726 -0.096855134
0.28301466 0.3984043 -0.04209545 0.59652627 0.67681766 0.20515393 0.64835316 -0.42453402
-0.4421479 0.00879244 -0.08995365 -0.64433146 0.060152132 -2.6849802 -0.12024722 -0.9239034
0.4846339 -0.18020095 0.35147583 0.3792787 0.1047254 0.50101453 0.6701031 -0.20833485
-0.88252854 0.48754227 -0.4562669 0.32450458 -0.79958403 -1.2495564 -0.5560734 -0.262458
-0.16621195 0.8702954 -0.4946493 -0.40744826 -0.37458548 0.7583964 -0.36930186 0.5359321
0.4710585 -0.26734132 0.1530313 0.61680543 0.86400145 0.91235685 -0.10209672 0.0650848
0.7179876 0.94809175 -0.64702535 0.8416686 0.75361776 -0.18307391 0.9940174 0.58475494
0.22565658 0.18895373 -0.046838015 0.5002957 0.072791696 1.408265 0.16768764 1.0250734
-0.21052562 -0.106887266 -0.055100117 -0.41983378 -0.6638007 0.35056353 -0.3539635 0.51870877
00000000: 5063 16bf ffde 22bf 4e34 a73e e672 8fbe
00000010: 5f26 d03e 42ee 9dbe 845c b3be f8d9 7f3e
00000020: 460b b2be eecf 843f a6e0 ecbd d123 ec3e
00000030: fc4b 9fbe 5d70 22bc 45c4 85be 433a 82bf
00000040: bc4d 583f 2182 2ebf 2ae2 53bf 2a0d 40be
00000050: 69ac 31be 4004 37be e565 9e3e 59ac 143d
00000060: b974 c53e 5ff5 d43d 33e3 183d f6d1 40bf
00000070: f522 0a3e 3d55 a43e 97ad a3be 80c4 bdbd
00000080: 08e4 193d ad13 13be f734 553e d72a ec3d
00000090: a261 3dbe 92bf e73d bf2a 883e 4847 86be
000000a0: 35f1 52be 6a54 83bd 5aff 1b3f 61d9 623f
000000b0: 2040 10c0 ae7a a73d 27d8 bb3f 21d4 adbe
000000c0: a67a 0ebf 448d 123f 06d7 f6bb 23bb 18bd
000000d0: f362 c83f b7ba f23e b016 fc3d 0c64 b8bd
000000e0: 7207 853e 2858 be3e ec75 76bd 674e 1c3f
000000f0: 17f3 2b3f 608b 223e 9ce4 223f 0316 ddbe
00000100: 21b5 e2be b264 06bc 13bc eabd 987b 26bf
00000110: f391 f13c b6de 2dc0 44ea 17be 2d4f 64bf
00000120: 0b2c f83e 648a 2fbe 144b c03e b35e d53e
00000130: d8fd fb3d 709d ee3e b485 273f 72e6 68be
00000140: 1239 62bf 6462 063f 05c6 e6be 19c4 a13e
00000150: 4072 4cbf 4460 a2bf fac4 0dbf 2f98 57be
00000160: 6872 0abe ffc9 5f3f 6f3c f2be d996 cdbe
00000170: 5143 b1be 60c6 413f f873 c4be 6074 033f
00000180: 78c6 fe3e 74dd 91be 00d2 ed3d a061 213f
00000190: ba22 673f 7785 6c3f 9344 f7bd 1c48 333d
000001a0: 7a6a 333f ac46 733f 02a5 2abf 2613 5c3f
000001b0: 2b35 3e3f 677f 11be a405 823f 7cbd 1a3f
000001c0: 73f2 573e e7ca 0d3e 480a 46bc 564a 033f
000001d0: 96ae bc3d a9c5 b43f 1607 463e df1f 853f
000001e0: a97d 23be eb59 eabd 91db 45bd b175 d5be
000001f0: 4fd7 35bf 738c aa3e ec3d b1be 1364 0a3f
00000200: 13b4 18bf f954 25bf 1b5a 903e b3e2 92be
00000210: 9051 d03e 4b5d 98be eb57 d8be 5e27 643e
00000220: 6da2 9abe c87c 833f af19 f8bd 41cb e93e
00000230: 6780 a1be 1755 ca3c f036 7dbe bba1 7ebf
00000240: 2fdd 5e3f 9684 25bf 1c80 50bf c649 41be
00000250: f91b 4ebe 3337 49be ce54 973e dc28 963d
00000260: d2bf ca3e 5ecc 8c3d d752 dd3c d47b 35bf
00000270: 9f9f e73d 0a0e b33e 96c1 97be e74c c6bd
00000280: fdad 4e3d 2ac7 13be 6c53 583e e7a4 b43d
00000290: 4164 06be e217 f53d 9e6d 823e ffef 83be
000002a0: 6bee 43be 2c5f 68bd daac 143f a311 613f
000002b0: ac3d 10c0 49bc bc3d 474b ba3f b1ff afbe
000002c0: ad75 12bf 9110 093f c581 403d 01c3 fcbc
000002d0: 729c c83f 97a6 e03e b286 1f3e fc5b c6bd
000002e0: 4ce7 903e a6fb cb3e 476c 2cbd f2b5 183f
000002f0: ec43 2d3f df13 523e 79fa 253f 865c d9be
00000300: 3661 e2be 2b0e 103c 9f39 b8bd e8f2 24bf
00000310: 1562 763d b7d6 2bc0 2d44 f6bd ef84 6cbf
00000320: ef21 f83e 9986 38be a4f4 b33e d130 c23e
00000330: 457a d63d 7d42 003f e08b 2b3f bb55 55be
00000340: 64ed 61bf 249f f93e d19b e9be 7725 a63e
00000350: 8ab1 4cbf 77f1 9fbf d45a 0ebf e560 86be
00000360: 7733 2abe aecb 5e3f ac42 fdbe 0f9d d0be
00000370: abc9 bfbe 4426 423f 2215 bdbe d932 093f
00000380: 942e f13e f6e0 88be 3db4 1c3e f6e6 1d3f
00000390: 332f 5d3f 3890 693f 1618 d1bd 2e4b 853d
000003a0: 09ce 373f 24b6 723f 74a3 25bf 9877 573f
000003b0: 18ed 403f ba77 3bbe ed77 7e3f 80b2 153f
000003c0: 8512 673e 167d 413e 38d9 3fbd 6113 003f
000003d0: d013 953d 0742 b43f 4fb6 2b3e 9b35 833f
000003e0: 0794 57be b6e7 dabd a9b0 61bd 74f4 d6be
000003f0: d8ee 29bf 107d b33e b43a b5be 19ca 043f

linear.bias f4 [938]
-21.995827 -21.993702 -21.9943 -5.4231324 -21.995073 -21.993645 -21.993841 -4.6234913
-2.3703303 -21.993473 -5.054606 -21.99458 -21.994703 -3.3770764 -21.993347 -1.2110088
-21.99227 -21.99442 -21.992916 -21.995695 -21.997915 -3.2226958 -4.135355 -1.7862501
-21.994081 -3.4082115 -21.996561 -3.5995712 -21.993996 -21.994999 -21.994568 -21.992584
-21.99471 -21.993559 -4.8479137 -21.994167 -21.993649 -3.5404322 -2.8972464 -21.992208
-3.370824 -21.994755 -3.6626947 -6.2473865 -21.994497 -21.994356 -21.994963 -21.995087
-21.993387 -21.993183 -21.992125 -21.995632 -4.062213 -4.76625 -4.0509315 -21.993101
-3.048534 -21.994267 -21.99616 -21.994518 -4.401704 -3.644929 -4.976662 -21.99583
-21.992403 -21.994408 -21.994156 -2.9311213 -2.9585168 -21.995403 -4.65974 -21.991377
-21.992441 -0.8032946 -0.5072628 -21.99463 -21.994177 -21.993616 -21.993196 -21.992746
-2.505713 -21.994375 -21.996489 -21.992466 -0.5200941 -21.993748 -21.993206 -5.3169756
-21.993584 -21.993505 -21.991693 -21.992897 -4.288356 -1.4039409 -1.3959253 -21.99637
-2.778698 -3.797058 -21.996445 -21.995588 -21.992735 -0.20835446 -21.995174 -21.99385
-21.992886 -3.8698938 -21.993755 -21.994724 -21.9946 -4.7753396 -21.994137 -21.995195
-5.3043914 -21.99558 -21.994408 -3.47072 -21.99473 -4.5856314 -4.528116 -21.994158
-4.0615287 -0.059974972 -21.993498 -1.9548116 -4.016106 -21.994497 -21.993717 -21.994246
-21.99603 -21.99271 -21.99176 -21.993248 -21.99492 -21.996433 -21.993826 -21.993996
-21.995916 -21.992321 -21.995764 -3.9811869 -21.992287 -21.995127 -21.99543 -6.235193
-21.992422 -3.5623105 -21.994658 -21.995699 -21.993757 -1.2854017 -21.992418 -21.995813
-1.9162873 -21.995842 -21.994741 -1.001555 -21.993526 -1.2517314 -21.99436 -21.994473
-21.993082 -2.29697 -4.727267 -21.99416 -21.992678 -3.122224 -21.99283 -5.1186614
-5.0226583 -21.996023 -2.6379213 -21.992365 -21.994303 -21.99517 -21.993004 -2.7143877
-3.1903517 -21.99425 -6.7735233 -4.724684 -21.994625 -21.994757 -1.2597121 -4.1780367
-21.994074 -4.885575 -1.3372841 -4.6697774 -4.804492 -21.995121 -3.0578876 -21.990814
-21.996862 -2.8374221 -2.42364 -1.1708446 -21.994278 -21.994724 -4.6729813 -21.991783
-21.996286 -2.5178769 -3.237185 -21.993452 -0.939745 0.434917 -21.994183 -21.99374
-21.993572 -21.992546 -21.99468 -21.995348 -21.99278 -3.4309025 -21.994776 -21.99604
-21.991768 -1.1088951 -21.994076 -21.993275 -2.3512342 -21.99233 -3.1284013 -4.5386605
-21.99422 -21.993837 -4.037149 -21.993261 -21.992117 -2.7362695 -1.9110973 -21.99316
-21.992384 -2.044422 -21.992594 -21.9946 -21.993378 -21.992857 -21.990803 -21.994785
-21.992846 -2.8110561 -4.1582665 -5.003754 -21.994822 -0.81963545 -3.7151673 -21.996115
-21.99717 -3.687825 -21.993347 -3.2047787 -21.993933 -21.993065 -21.993767 -21.99311
00000000: 74f7 afc1 1af3 afc1 54f4 afc1 4d8a adc0
00000010: e9f5 afc1 fcf2 afc1 63f3 afc1 a4f3 93c0
00000020: 7eb3 17c0 a2f2 afc1 55bf a1c0 e6f4 afc1
00000030: 27f5 afc1 0522 58c0 60f2 afc1 5602 9bbf
00000040: 2bf0 afc1 92f4 afc1 7ef1 afc1 2ff7 afc1
00000050: bbfb afc1 a640 4ec0 d454 84c0 d8a3 e4bf
00000060: e1f3 afc1 2320 5ac0 f5f8 afc1 605f 66c0
00000070: b4f3 afc1 c2f5 afc1 e0f4 afc1 d0f0 afc1
00000080: 2bf5 afc1 cff2 afc1 1c22 9bc0 0ef4 afc1
00000090: fef2 afc1 7196 62c0 7c6c 39c0 0bf0 afc1
000000a0: 95bb 57c0 42f5 afc1 9769 6ac0 97ea c7c0
000000b0: bbf4 afc1 71f4 afc1 aff5 afc1 f0f5 afc1
000000c0: 75f2 afc1 0af2 afc1 dfef afc1 0ef7 afc1
000000d0: a6fd 81c0 1f85 98c0 3ba1 81c0 dff1 afc1
000000e0: 2e1b 43c0 42f4 afc1 23f8 afc1 c6f4 afc1
000000f0: c2da 8cc0 8446 69c0 d140 9fc0 76f7 afc1
00000100: 71f0 afc1 8cf4 afc1 08f4 afc1 7e97 3bc0
00000110: 5758 3dc0 96f6 afc1 971c 95c0 57ee afc1
00000120: 85f0 afc1 b7a4 4dbf fadb 01bf 01f5 afc1
00000130: 13f4 afc1 edf2 afc1 11f2 afc1 25f1 afc1
00000140: 9a5d 20c0 7bf4 afc1 cff8 afc1 92f0 afc1
00000150: e324 05bf 32f3 afc1 16f2 afc1 aa24 aac0
00000160: dcf2 afc1 b3f2 afc1 fdee afc1 74f1 afc1
00000170: 363a 89c0 56b4 b3bf aead b2bf 91f8 afc1
00000180: 30d6 31c0 0003 73c0 b8f8 afc1 f7f6 afc1
00000190: 1ff1 afc1 df5a 55be 1ef6 afc1 68f3 afc1
000001a0: 6ef1 afc1 57ac 77c0 36f3 afc1 32f5 afc1
000001b0: f1f4 afc1 95cf 98c0 fef3 afc1 29f6 afc1
000001c0: 93bd a9c0 f3f6 afc1 8cf4 afc1 4720 5ec0
000001d0: 35f5 afc1 7ebd 92c0 54e6 90c0 09f4 afc1
000001e0: 0bf8 81c0 51a8 75bd aff2 afc1 4437 fabf
000001f0: f183 80c0 bbf4 afc1 22f3 afc1 37f4 afc1
00000200: dff7 afc1 12f1 afc1 20ef afc1 2cf2 afc1
00000210: 99f5 afc1 b2f8 afc1 5bf3 afc1 b4f3 afc1
00000220: a3f7 afc1 46f0 afc1 53f7 afc1 c4cb 7ec0
00000230: 34f0 afc1 05f6 afc1 a4f6 afc1 b386 c7c0
00000240: 7bf0 afc1 e5fc 63c0 0ff5 afc1 31f7 afc1
00000250: 37f3 afc1 0b88 a4bf 79f0 afc1 6df7 afc1
00000260: e748 f5bf 7cf7 afc1 3bf5 afc1 f432 80bf
00000270: bef2 afc1 bc38 a0bf 73f4 afc1 aef4 afc1
00000280: d5f1 afc1 8e01 13c0 c545 97c0 0af4 afc1
00000290: 01f1 afc1 85d2 47c0 51f1 afc1 13cc a3c0
000002a0: 9eb9 a0c0 dbf7 afc1 b4d3 28c0 5df0 afc1
000002b0: 55f4 afc1 1cf6 afc1 acf1 afc1 87b8 2dc0
000002c0: b92e 4cc0 39f4 afc1 b4c0 d8c0 9c30 97c0
000002d0: fef4 afc1 43f5 afc1 3f3e a1bf 7ab2 85c0
000002e0: ddf3 afc1 a156 9cc0 202c abbf d16e 95c0
000002f0: 66be 99c0 02f6 afc1 6eb4 43c0 30ed afc1
00000300: 93f9 afc1 5398 35c0 eb1c 1bc0 3cde 95bf
00000310: 48f4 afc1 32f5 afc1 1089 95c0 2cef afc1
00000320: 65f8 afc1 e524 21c0 0a2e 4fc0 97f2 afc1
00000330: 2193 70bf 71ad de3e 16f4 afc1 2ef3 afc1
00000340: d6f2 afc1 bcf0 afc1 1bf5 afc1 79f6 afc1
00000350: 37f1 afc1 e893 5bc0 4df5 afc1 e4f7 afc1
00000360: 24ef afc1 46f0 8dbf def3 afc1 3af2 afc1
00000370: 9f7a 16c0 4bf0 afc1 ba37 48c0 b53c 91c0
00000380: 2af4 afc1 61f3 afc1 5330 81c0 33f2 afc1
00000390: dbef afc1 0a1f 2fc0 d69e f4bf fef1 afc1
000003a0: 67f0 afc1 cfd7 02c0 d5f0 afc1 f1f4 afc1
000003b0: 70f2 afc1 5ff1 afc1 2aed afc1 52f5 afc1
000003c0: 59f1 afc1 58e8 33c0 8510 85c0 c11e a0c0
000003d0: 65f5 afc1 a1d3 51bf 4dc5 6dc0 0bf8 afc1
000003e0: 34fa afc1 5305 6cc0 60f2 afc1 181b 4dc0
000003f0: 93f3 afc1 ccf1 afc1 3cf3 afc1 e4f1 afc1
